data/svae_model_100.pth (torch, 466870 bytes, 16 tensors)

encoder_z.fc_layers.0.weight f4 [128, 500]
000000 db eb 8f bd 93 1a e5 bd 3b 11 cc bd 35 7f 8d bd
       -0.07027408 -0.11186709 -0.09964224 -0.069090284
000010 a5 1e 06 be 16 3f 70 bd 0a 17 bf bd 51 3c 75 bd
       -0.13097627 -0.058653913 -0.09330566 -0.059871975
000020 ae 84 99 bd e8 9a a8 bd 18 e7 80 bd d9 34 92 bd
       -0.0749601 -0.08232671 -0.06294078 -0.07138986
000030 08 6f 60 bd b2 55 af bd e1 80 8c bd e3 26 86 bd
       -0.054793388 -0.08561267 -0.06860519 -0.06550386
000040 38 bc 56 bd 41 ae 66 bd 31 24 73 bc 19 c9 15 bd
       -0.052425593 -0.056318525 -0.014840172 -0.036568735
000050 10 d7 80 bd a5 25 8e bd 1c 34 3c bd 01 dc 61 bd
       -0.0629102 -0.06940774 -0.045948133 -0.055141453
000060 6b 38 38 bd e8 b0 d2 bc 35 e4 5b 3b 6f c9 93 3b
       -0.04497568 -0.025719121 0.003355277 0.0045100967
000070 f8 2c 74 bd 5a 64 82 3c 0c 6c 99 3b f9 3c 26 3d
       -0.059613198 0.015916992 0.0046820696 0.04058549
000080 d9 31 fc 3c 85 f1 16 bd ca 40 07 bd 66 dc 1f bc
       0.030785488 -0.036851425 -0.033020772 -0.009757137
000090 f5 1e 57 3d 54 50 31 3c 5b 2d 24 3d e6 a2 5e 3b
       0.052519757 0.010822374 0.040082317 0.0033971607
0000a0 2b cf 8f 3d 6f f3 f9 3b 43 43 78 3d 66 a5 f1 3c
       0.07021936 0.0076278965 0.06061102 0.029497813
0000b0 eb 42 f9 3b 6f d4 60 3d b0 b1 09 3c 88 d5 39 3d
       0.007606854 0.054890092 0.00840418 0.045369655
0000c0 f6 b1 ad 3c 0e 2b e7 3c 4a 84 d7 bb 18 ce 8a 3c
       0.021203022 0.028218772 -0.0065770494 0.016943976
0000d0 ea d1 7f 3d 42 ca f2 3c c1 f8 b1 3d 24 e4 a4 3d
       0.06245605 0.02963746 0.08690024 0.08051327
0000e0 d6 f4 3a 3d 44 fe a6 3c 7a d2 a1 3d 7e 1e 86 3d
       0.04564365 0.020384915 0.07901473 0.06548785
0000f0 20 25 be 3c 5d f8 a3 3d ad c4 99 3d b1 9d b0 3d
       0.023211062 0.08006356 0.07508216 0.08623827
000100 74 02 90 3c 3a 71 01 3d ba 5f 06 3d f7 74 14 3d
       0.017579295 0.031602122 0.032806136 0.03624436
000110 83 67 fe bb ea d1 d1 bb 3b a8 48 3d 0b e6 90 3c
       -0.0077638044 -0.0064031975 0.048988562 0.017687818
000120 d1 f8 61 3d 27 d3 37 3d fc cc 90 3d 91 ec a8 3d
       0.05516893 0.044879105 0.07070348 0.082482465
000130 4d da dd 3d cc 34 08 3e 24 09 b2 3d c4 fc 29 3e
       0.10832653 0.1330139 0.0869315 0.16600329
000140 8b be f9 3d 85 59 00 3e 61 e9 28 3e a8 67 1d 3e
       0.12194546 0.12534149 0.16495277 0.15371573
000150 a4 07 3f 3e 11 f9 07 3e 2e 65 ef 3d 6a b4 3f 3e
       0.18655258 0.13278605 0.1168922 0.18721166
000160 86 15 15 3e 95 98 32 3e 8f 4f 23 3e 7d f9 d9 3d
       0.14558992 0.17441018 0.15948318 0.10643289
000170 8c 05 13 3e e6 74 0f 3e 31 dd c1 3d 2c 7d cb 3d
       0.14357585 0.14009437 0.09466017 0.09935984
000180 15 4e 07 3e 5b c8 f8 3d d4 cf bb 3d 56 ab c0 3d
       0.1321338 0.1214759 0.091704994 0.0940768
000190 cd 46 15 3e d7 e3 c0 3d 1f 67 01 3e b3 5c f6 3d
       0.1457779 0.09418457 0.12636994 0.120294
0001a0 a5 ad 96 3d c5 ae 88 3d f3 88 19 3e e2 e3 e0 3d
       0.07357339 0.0667396 0.14993648 0.10980965
0001b0 31 2b 0a 3e 35 ea d9 3d 18 d4 ce 3d af d4 de 3d
       0.13493039 0.106403746 0.100990474 0.1088041
0001c0 8e 54 de 3d f5 de ff 3c 7a d9 85 3d d5 59 c2 3d
       0.10855971 0.031234244 0.06535621 0.0948979
0001d0 30 ee c4 3d dd 4f bc 3d 41 87 ea 3c f5 2a b5 3c
       0.09615743 0.0919492 0.028628947 0.02211521
0001e0 7d ea 92 3c 7d 10 26 3d 4d 95 90 3d d6 5a 0d bc
       0.017934078 0.04054307 0.07059727 -0.008627614
0001f0 d1 2b 25 3d 3a 0c 04 bc f8 a9 b9 bc 16 a4 63 3c
       0.04032499 -0.008059556 -0.022664055 0.013894102
000200 83 20 5a 3d 8d 00 93 3d ff 31 58 3b 0f cf 1d 3d
       0.05325366 0.071778394 0.0032988784 0.038527545
000210 ed fc 7e 3d 95 ff 3a 3d 03 26 0d 3d 9a 09 e7 3c
       0.062252928 0.0456539 0.03446008 0.02820282
000220 1e 6b 78 3c 3d 11 1f bc 19 2d 6c bd ba 11 8b bd
       0.0151622575 -0.0097087 -0.057660196 -0.067904904
000230 ca 73 53 bd fa af 0f bd 9b 20 60 bd 59 6e 01 bc
       -0.051624097 -0.035079934 -0.054718595 -0.007899844
000240 16 6c fb bb ed 2a f4 bc 25 12 f9 ba 2b 9e b2 bb
       -0.007672797 -0.029805625 -0.00190026 -0.005450984
000250 b5 20 b4 3b 17 e4 be 3b 39 07 2c bd be e8 77 3c
       0.005497063 0.0058255303 -0.041999076 0.015131174
000260 95 64 0c bd 6c c1 f2 bc f2 28 8b bd af 51 50 bd
       -0.03427561 -0.029633246 -0.06794919 -0.05085915
000270 b9 09 33 bd ce c2 02 bd c8 bb c3 3c 9d 12 95 bc
       -0.043710444 -0.03192406 0.023893252 -0.018197352
000280 46 a7 08 bd bc fb a5 3c 74 a8 a0 3c 85 54 12 3d
       -0.03336265 0.020261638 0.019611575 0.035725135
000290 1f f7 79 bc f2 39 95 3c a6 1a ef bb df 86 5b ba
       -0.015256672 0.018216107 -0.007296878 -0.00083742844
0002a0 c3 4f d7 bc 07 cb 2f bc d5 97 6e bb 1c 01 f4 3c
       -0.02628315 -0.010729558 -0.0036406417 0.029785685
0002b0 91 cd a1 3c 2d 8c c2 3c 8e ec 6f 3d 78 91 71 3d
       0.019751342 0.023748482 0.058575206 0.05897662
0002c0 10 5f 42 3d 3d b1 a3 3c 4c fc 30 bc ac fe 67 3d
       0.04745394 0.019981975 -0.01080234 0.05663936
0002d0 40 9d 41 3c cd fe a7 3c 25 da 5d bc 21 9e 89 3c
       0.0118172765 0.02050724 -0.013540779 0.016799035
0002e0 ba 51 35 bb a7 d4 89 3d 42 b5 4c bc 94 ba 13 bc
       -0.002766712 0.06730013 -0.012494387 -0.009016652
0002f0 15 31 c5 3c b9 5b 7c 3a 88 3f 26 3d 8b 4e de 3b
       0.024071256 0.0009626705 0.040587932 0.0067842654
000300 f2 a7 15 3b 37 67 cd 3c c7 7d 5d 3d b3 de 2e bc
       0.00228357 0.02507363 0.05407503 -0.010673213
000310 f7 8d 26 3d fa 1b 41 3d 34 f4 78 3d 0a 08 82 bc
       0.040662732 0.04714582 0.060779765 -0.015872974
000320 cf c9 c8 3c 4d 6c af bc 4c 40 43 3d f0 13 26 bc
       0.024510292 -0.021413947 0.04766874 -0.010136589
000330 63 12 02 3d a7 e6 6f 3b 12 be 6f bb ca 9f 85 bb
       0.031755816 0.0036605985 -0.0036581797 -0.004077886
000340 58 d1 21 3b 7d 22 5d 3c ff 62 30 bb f7 a0 d2 3a
       0.002469143 0.013496992 -0.0026914475 0.00160697
000350 0a 67 5e bd d9 32 88 3c 6f 9a ae 3c 33 b2 90 3c
       -0.054297484 0.016625809 0.021313874 0.017663097
000360 ed 95 4a 3c 77 26 5e bd fc 7e 22 bd 60 81 7b 3c
       0.012364847 -0.0542359 -0.039671883 0.01535067
000370 e8 8f 71 bd 6b c4 74 3c 94 ad 7b bd bc b0 6e bd
       -0.05897513 0.014939408 -0.061444834 -0.058274016
000380 2d ae ac bb 8e aa 73 bd 7b a4 1a bd 0b a3 a0 3b
       -0.005269787 -0.059488826 -0.037754517 0.0049022487
000390 24 49 00 3c 97 3c 72 3c 59 eb 14 bd 3b fd 7c bd
       0.007829938 0.014784954 -0.036357258 -0.061764937
0003a0 53 97 8e 3c 3e 1c 12 bd b3 71 34 bd 0b 6a 67 bc
       0.017406141 -0.035671465 -0.044053745 -0.014124404
0003b0 4c ec 63 bd dc 65 ba 3b 43 2c a5 3b 0d 63 6c bd
       -0.055645272 0.005688412 0.005040677 -0.05771165
0003c0 fd 6f 6e bd 7f 71 c9 bc c3 0a 8c ba 67 c9 a6 bc
       -0.05821227 -0.024590252 -0.001068436 -0.020359708
0003d0 e0 bb 27 bd 47 3b 86 bc 88 60 70 bd 13 39 42 bd
       -0.040950656 -0.016385688 -0.05868581 -0.04741771
0003e0 fd 77 37 bd 21 19 ba 3c 1e a0 d5 3c 62 5a e2 bc
       -0.044792164 0.02271706 0.026077326 -0.027630989
0003f0 bf 24 1d bc 98 01 18 3c c5 db 8f bb cf 9d fe bc
       -0.0095912805 0.009277724 -0.0043902122 -0.031081108

encoder_z.fc_layers.0.bias f4 [128]
000000 c6 fe ea bc 7f 2c ba bd af 9a 8b 3b 52 a8 21 bd
       -0.028685939 -0.09090518 0.004260383 -0.039467163
000010 db 37 8b bd bc 0a b4 3d 9b 44 b1 3d 59 61 9f bc
       -0.06797763 0.0879111 0.086556636 -0.019455599
000020 b9 0d 61 3d d7 e2 f7 bd 22 69 ba bb a8 0d 8c 3d
       0.054944728 -0.12103813 -0.0056888023 0.06838542
000030 f1 45 07 3d af 4e 92 bd 3b 6d a2 3d c8 cb 46 3d
       0.033025686 -0.07143914 0.0793099 0.048534185
000040 0f 63 00 3d 6c e4 f0 3c 49 43 4f bd 19 6e e0 3d
       0.03134447 0.029405795 -0.050601278 0.109584995
000050 56 f2 e6 3d 85 90 26 bd 00 34 f0 3d 82 e4 91 bd
       0.11276691 -0.04066517 0.11728668 -0.071236625
000060 88 97 86 bd 1e d1 b1 3d f6 ee 5f 3d 68 6b 83 3d
       -0.06571871 0.08682464 0.05467125 0.064169705
000070 52 aa be bd 09 a1 36 bd 95 40 ce bd 28 4b 8e 3d
       -0.0930983 -0.04458717 -0.10070912 0.06947929
000080 05 a7 67 bd 53 a3 9a bb 18 7e 67 bd a1 7c 84 bd
       -0.056555767 -0.004719177 -0.056516737 -0.064690836
000090 3a e1 3b 3d 7e 0d 81 bd 34 92 bd 3c d4 d4 6c bd
       0.04586909 -0.063014016 0.023141004 -0.057820156
0000a0 a9 51 fa bd d7 4c a4 bd d8 c7 19 3e 30 27 d3 3b
       -0.12222607 -0.080224685 0.1501764 0.0064438805
0000b0 6b ab f3 bd aa 26 ea 3c 26 0b fe 3c 61 ca 74 3c
       -0.1189793 0.02858289 0.031011175 0.014940829
0000c0 58 00 b8 3d 56 ab 8b bd 6c 9c 8f 3a 71 c8 94 3d
       0.089844406 -0.06819789 0.0010956652 0.07264794
0000d0 9c ef 13 3c 5f 6c 5c bd 4e 5f 9c 3d fb 2c 1d 3d
       0.009029295 -0.05381429 0.076353654 0.038372975
0000e0 f2 27 d2 3d 3f 7f 1d bd 60 36 67 3d 8e f6 11 3c
       0.10261525 -0.03845143 0.05644834 0.008908881
0000f0 a6 9a 9c bd bd 8a b7 3d 28 28 82 3d bb 9d 4f 3d
       -0.07646684 0.08962009 0.063553154 0.050687533
000100 07 9d da 3d b1 81 60 bd 16 9d 9e 3d a2 fa 60 3c
       0.10674482 -0.054811183 0.077448055 0.0137316305
000110 a1 91 86 3d 44 49 aa bc a6 b3 f3 3d 47 e1 c1 3d
       0.06570745 -0.020786889 0.118994996 0.09466796
000120 5a 80 7f bd 3b 5a ba bd 9c 31 2d bd 35 59 09 be
       -0.062378265 -0.09099241 -0.04228364 -0.13412936
000130 fd 34 db bc 89 b3 9b 3d 30 7c 33 bd 47 39 a6 bd
       -0.026758665 0.07602603 -0.043819606 -0.081163935
000140 ba 9f bc 3c 47 e3 aa 3d af 89 9c 3d f3 da 24 3c
       0.023025382 0.08344131 0.076434486 0.010061967
000150 5b 50 f3 3d a1 0a 8b bd 7f ee 33 3d 0b 1f 6a 3d
       0.11880561 -0.06789137 0.04392862 0.05715851
000160 a6 7d 57 3d 81 56 13 bd 4d ec 58 3d 8f ce 9c 3d
       0.052610062 -0.03597117 0.05295973 0.076565854
000170 66 3d af bd b6 6e de 3d e2 86 07 bd b3 13 55 3a
       -0.08556633 0.1086096 -0.03308762 0.00081282406
000180 42 db ff bd 6f 61 ca 3d 54 9a 87 3d 60 56 84 bd
       -0.12492992 0.09881865 0.06621233 -0.06461787
000190 bb 46 6f bd b4 0b ca bd 49 1a 6a bd 9a cb 57 bd
       -0.058417063 -0.098655134 -0.057153974 -0.052684404
0001a0 55 d7 13 be e1 bb 17 be a0 92 70 bd 6f 3c 7b bd
       -0.14437611 -0.14817764 -0.058733582 -0.06133693
0001b0 17 cd 9c 3c d4 f8 ff bc 9c 81 a5 bc d8 96 fa bd
       0.019140763 -0.03124658 -0.020203404 -0.122358024
0001c0 c0 92 ad 3c a0 0c fe bd cf d0 35 bd c6 13 d0 bd
       0.02118814 -0.12404752 -0.04438859 -0.101600215
0001d0 85 a1 f9 3d 9d e0 a4 bd bd 4d 57 3d 04 19 e2 bc
       0.121890105 -0.08050654 0.05256437 -0.027599819
0001e0 cb b2 6f 3c 54 bc 02 3e cc f5 11 3d 8b 2f 79 3d
       0.01463003 0.12767154 0.0356348 0.060836356
0001f0 65 04 eb bd 6b f2 e9 3d 6d c6 d9 3c 98 bb 79 3d
       -0.114754476 0.11423191 0.026583875 0.06096992

encoder_z.fc_layers.2.weight f4 [128, 128]
000000 c1 34 b4 3d e6 60 92 3c 49 99 5c 3c df 59 cd bd
       0.087991245 0.01786847 0.01346428 -0.10026907
000010 29 f0 aa bc c8 a4 77 3d 04 f1 e2 3c f4 21 ac bd
       -0.02086647 0.060459882 0.027702816 -0.084049135
000020 42 26 b3 bc 32 cd 97 3d c4 03 ba bd 34 65 bd bd
       -0.021868829 0.07412185 -0.090827495 -0.092478186
000030 5f ce 75 bd 1c 35 c8 bd 2f 11 9a bc d6 03 c9 bc
       -0.060011264 -0.09775755 -0.018807022 -0.024537962
000040 cd 02 a0 3d d4 7e 12 bd 4b 30 c3 3c ab 17 2b bc
       0.07813034 -0.035765484 0.023826739 -0.010442655
000050 de 04 a2 bb 5d 71 aa bd 42 98 5f bd 10 b9 96 ba
       -0.004944428 -0.083224036 -0.054588564 -0.0011499245
000060 25 58 07 3d aa 78 b3 3c 22 8e 66 3d b4 33 1c 3d
       0.033043046 0.021908123 0.056287892 0.038135245
000070 aa 1b 60 bd f1 a7 9f bb e7 35 07 be 2a 81 d3 bc
       -0.054713883 -0.004872315 -0.13204156 -0.025818426
000080 16 00 91 bd 0e dc 6d b9 c9 fd 8b bd 36 78 b2 3d
       -0.070800945 -0.00022684058 -0.06835515 0.08714335
000090 9b 9f b5 bd 3f 91 90 bc ce 71 d5 bc 83 2a ae 3d
       -0.08868333 -0.017647384 -0.026055243 0.08504202
0000a0 9f f8 19 bd 44 65 9d bc 60 13 bf bd 73 d6 bf 3d
       -0.03759062 -0.019213326 -0.09329867 0.09367075
0000b0 50 a6 0a 3d 30 e9 9d 3d 2f b4 5a 3e a9 b2 8f 3c
       0.033850014 0.077104926 0.21357797 0.017541246
0000c0 fd 24 09 bd 48 ed b3 3d 13 ee 03 be c9 c0 89 3c
       -0.03348254 0.08785492 -0.12883787 0.01681556
0000d0 78 2a 8a 3d f8 a5 cd 3d 05 36 16 bd ec a9 1b bd
       0.067463815 0.10041422 -0.03667261 -0.038003847
0000e0 cd 5c 6b 3d 76 1b bb 3d 7f cf ab bd 1d 37 e8 bc
       0.05746155 0.09136097 -0.08389186 -0.028346593
0000f0 40 bf b3 3d ec b4 0e 3c 30 e8 26 3d b1 d2 c9 bd
       0.087767124 0.008710127 0.040748775 -0.09854639
000100 32 f4 a6 3c 3f b8 a9 bb 30 b2 1e bc d7 fa 00 3e
       0.020380113 -0.0051794345 -0.009686038 0.12595688
000110 6a fa 81 bd 01 36 69 3d 56 fa 9d 3c 7b 1c 05 be
       -0.06346591 0.056936268 0.019284409 -0.12999146
000120 a2 3a 9d 3d b4 0c 81 3d 89 bf a0 3d 53 b8 ee bb
       0.07677199 0.06301251 0.078490324 -0.0072851568
000130 55 3e 92 bc 93 1d 35 bb a0 72 c3 3c 4c a4 78 bd
       -0.017851988 -0.0027636036 0.023858368 -0.06070356
000140 42 28 ad 3c 3d 55 6c bd 27 61 f0 3c 48 b5 ae bd
       0.02113736 -0.057698477 0.0293432 -0.085306704
000150 ad 17 9d ba da 88 90 bd 49 e3 05 3d a8 81 94 3d
       -0.0011985205 -0.07057352 0.03268746 0.072512925
000160 37 d3 b2 bd d6 38 26 3c e3 01 3a bd 56 aa a6 bd
       -0.08731692 0.010145387 -0.045411956 -0.08137958
000170 9b 5f b1 3d 1d b6 9e 3c 41 51 97 3d 62 de 83 3c
       0.086608134 0.019373948 0.07388545 0.016097251
000180 14 3a 5a 3d 05 ac 52 bd b0 44 53 3d 57 62 5a 3d
       0.053278044 -0.05143358 0.051579177 0.05331644
000190 b2 c7 f7 bd 3e 19 c2 3c 98 d3 69 bd 3f e0 0a bc
       -0.12098636 0.023693677 -0.057086557 -0.008476316
0001a0 ae 15 97 bd 60 71 80 3a 2c 3d d9 3c 72 e3 b5 3c
       -0.07377182 0.0009799413 0.026518427 0.022203181
0001b0 d0 3a 4c bd 1e 44 ae 3d e4 22 b8 bc 4a 32 13 bd
       -0.049860775 0.08509086 -0.022477575 -0.03593663
0001c0 ce d9 23 be 93 89 95 3d e6 1c 62 bd e9 05 b4 bd
       -0.16001055 0.07301631 -0.05520334 -0.0879019
0001d0 dc a3 77 bd 75 26 d6 3d 45 74 e0 3c 29 d6 07 3d
       -0.060459003 0.10456554 0.027399192 0.033163223
0001e0 85 84 31 3c cb d4 8b bd 2c 2a 56 3d aa 5c 98 bd
       0.010834818 -0.068276964 0.052286312 -0.07439549
0001f0 df 89 c0 3d d3 ec 24 bd 8d 79 a2 bc 2c ce a9 bc
       0.09401297 -0.040264916 -0.01983335 -0.020728193
000200 f8 e9 cb bb 98 dc b0 3d ea 79 67 3c fa 8e be bd
       -0.0062229596 0.08635825 0.014128188 -0.09304614
000210 de 4d aa 3d 14 07 9b bd 8c 08 87 ba 82 17 25 3c
       0.08315633 -0.075697094 -0.001030223 0.0100764055
000220 83 10 90 bc e8 fc 23 bd b8 b8 8f 3d 42 f2 87 3d
       -0.017585998 -0.040036112 0.07017654 0.06638004
000230 2d 4f 97 bd 1e fe 86 3d c1 e2 8f 3c 2d 2b 00 3d
       -0.073881485 0.06591438 0.01756418 0.031291176
000240 30 63 ab bc db 4c 8a 3d 01 1b aa bb 9e 00 37 bb
       -0.02092132 0.0675294 -0.0051912074 -0.0027923952
000250 93 3a a5 bd a1 63 ba bd 71 90 3b 3d b3 70 76 bd
       -0.08067813 -0.09101034 0.045792047 -0.060166072
000260 e6 78 b7 3d 6c 3d 8a 3d 0b 5e a4 bc de e5 cc bc
       0.089586064 0.067499965 -0.020064374 -0.025011953
000270 04 62 89 3d 6b 3d fd 3d 40 b4 af bc 61 79 bf 3b
       0.06708148 0.1236523 -0.021448255 0.005843327
000280 49 ce 8c bc f7 d0 dc 3c 62 41 36 3d 4d bc 62 bc
       -0.017188208 0.026955111 0.044495948 -0.01383884
000290 bf 73 fd bb 36 7e c3 bd 5f 5c 9e bd 90 16 bb bd
       -0.0077347453 -0.09545557 -0.07732462 -0.09135163
0002a0 58 18 a9 3d 69 86 80 3d ec cb 52 bd e3 df 39 bd
       0.08256596 0.06275637 -0.051464006 -0.04537953
0002b0 28 43 cc 3d 3c e2 e2 bc 3b ae c9 3d 32 c8 ef 3c
       0.099737465 -0.027695768 0.09847685 0.029270265
0002c0 08 a6 ca bd d4 ae 38 bc b5 f4 3a bc 16 39 ec 3b
       -0.09894949 -0.011272151 -0.011410882 0.0072089536
0002d0 fd a3 cb 3d dc 7c 93 3c 2d 95 a7 3d 38 a3 9b bd
       0.09943388 0.018003874 0.0818275 -0.07599491
0002e0 5c b8 b3 bd 82 4f 29 bc 56 25 7c 3c da b2 55 bc
       -0.08775398 -0.010333898 0.015389761 -0.01304313
0002f0 12 b7 e3 3d 48 e8 7c bd ff dd 02 bd 41 f1 ff 3c
       0.11118902 -0.06174496 -0.031949993 0.031242969
000300 5a 9e aa bc 71 07 9e 3d 40 a6 f6 3d 7e 66 04 3c
       -0.020827461 0.07716263 0.120434284 0.008081077
000310 a6 8b 0b 3e a1 49 e9 bc 38 0d 06 3d 4b 12 b4 3c
       0.1362749 -0.028477492 0.03272745 0.021981379
000320 38 d8 b8 3c 36 a7 ca 3c 51 a5 de bd e5 ae 8b 3c
       0.022564039 0.024737936 -0.10871375 0.01705117
000330 88 55 24 bd 07 2b a1 bd 63 5d 55 bd 67 86 84 bd
       -0.04012063 -0.07869535 -0.052091014 -0.06470948
000340 1b 4f f0 3d 2b c9 a6 3c c2 4a 40 3d 7f 9a ca 3d
       0.11733838 0.020359596 0.046946295 0.09892749
000350 36 68 49 bd 8d bd d9 3b c4 71 48 3d e6 6f 91 bd
       -0.04917165 0.0066449107 0.04893662 -0.07101421
000360 7c 39 68 3d 94 1f a4 bb fa be 51 bd d5 d5 c2 bd
       0.056695446 -0.005008647 -0.05120752 -0.095134415
000370 6b 64 a5 3d 72 01 8a bd 9e 96 00 be 1d 4f 1a bd
       0.08075794 -0.06738557 -0.12557456 -0.037673105
000380 08 f0 ff 3c 9a a1 2c bd e1 96 3e bd da c8 c6 3c
       0.031242386 -0.042146303 -0.046530608 0.024265695
000390 1b 71 4d bd d1 e2 2a 3d ea b8 b7 3c e6 0d 99 bd
       -0.050156694 0.041720215 0.022427041 -0.07473354
0003a0 11 ed 83 3d 33 8b db 3d 02 26 c6 3d 80 c6 eb 3c
       0.06441701 0.107199095 0.09675218 0.028781176
0003b0 18 85 0f bd 23 8e eb 3d b9 fc 59 bd 57 00 b1 3d
       -0.035039037 0.1150172 -0.05321953 0.08642643
0003c0 aa 18 12 3c 82 7f 91 3d fc 95 09 bd a8 a6 65 3b
       0.008917013 0.07104398 -0.033590302 0.0035041962
0003d0 ff b2 3c 3d 68 bb a6 bc e4 bd 86 bd 22 6d 6c bd
       0.04606914 -0.020353034 -0.065791875 -0.057721265
0003e0 80 54 94 bd b8 da 4a 3d b8 66 61 3d 08 24 10 3e
       -0.072426796 0.049524993 0.0550296 0.14076245
0003f0 74 d6 5b bd 33 d5 ae bd 61 1f b8 3b c1 9a c9 3c
       -0.053671315 -0.08536758 0.005618975 0.024609925

encoder_z.fc_layers.2.bias f4 [128]
000000 14 79 ea bc af 8a f6 3c 7e b0 c3 3c 0e 27 dc 3c
       -0.028622188 0.030095426 0.023887869 0.026874091
000010 18 1b 4e 3d 03 18 86 3a a5 47 6a bd 44 6d c2 bd
       0.050318807 0.0010230545 -0.05719723 -0.09493497
000020 80 65 f3 3d 65 39 bd bc a9 d5 22 bc 55 4a bc bc
       0.11884594 -0.023098657 -0.009938636 -0.022984663
000030 5e e3 1d bd 87 ca dc bd 01 5a f1 3b f9 64 a9 bc
       -0.038546912 -0.107808165 0.0073654656 -0.02067803
000040 c1 ec 21 bd 9e ec 4b 3d 3f d1 c7 bd 2f 63 42 3d
       -0.039532427 0.049786203 -0.097567074 0.04745787
000050 a5 5a 86 bd b7 1a ea bd fa cb 5a 3b f7 2c 66 3d
       -0.06560258 -0.11430877 0.003338574 0.056195226
000060 2d bf a8 3d c4 d4 95 3d b6 57 e0 bc fe 30 0f bd
       0.08239589 0.073159724 -0.027385574 -0.034958832
000070 56 af a2 3d 3b b3 1a 3d a2 75 7e bc 42 8a bd bc
       0.07943599 0.037768584 -0.015530976 -0.023137216
000080 d3 4d db 3c 4f f7 b6 bd ed 5f 39 bd 18 d5 51 bd
       0.026770508 -0.08933889 -0.045257498 -0.051228613
000090 1c 66 e1 3c fb f8 bb bc c6 b8 ed bd 8e 89 4f bd
       0.02751451 -0.022945872 -0.11607508 -0.05066829
0000a0 20 8e 8c bd b9 ae a7 bd 00 e6 84 bd 78 6e 69 3d
       -0.06863046 -0.081876226 -0.064891815 0.056990117
0000b0 47 32 88 3c 33 49 8c bd be 2b c2 3c 70 d1 fc bc
       0.016625537 -0.06849899 0.023702499 -0.030861586
0000c0 14 26 57 3d e6 45 c4 bd c7 da d5 3c 02 8f 56 bd
       0.05252655 -0.095836446 0.026105298 -0.052382477
0000d0 2c 20 f9 3b 61 9a 33 3d cd 24 07 bd 00 1c ad bd
       0.007602712 0.0438484 -0.03299408 -0.08452606
0000e0 76 15 0e 3d 8e 07 c9 bd 77 98 db 3c 8c e0 3d 3c
       0.034688435 -0.09815894 0.0268061 0.011589181
0000f0 40 f1 50 3d cf e7 01 be 9d b2 7a 3d 35 2a 80 bc
       0.051011324 -0.12686084 0.061205495 -0.015645126
000100 20 bb 83 3d d7 11 ca 3d b8 5d f9 3c 52 73 8f bd
       0.06432176 0.09866684 0.030440196 -0.070044175
000110 10 be 3e 3d fb 09 cb 3d 4d cd d3 bd 61 d6 e8 3d
       0.046567976 0.09914013 -0.103418924 0.113690145
000120 88 a2 26 3d 13 b9 3e bd d3 1b 2c 3d 19 63 87 3d
       0.040682346 -0.04656322 0.042018723 0.06610698
000130 8b 6a e9 bb 6f af 5c bd 23 26 c4 3c 50 3e 8c bd
       -0.0071232966 -0.053878244 0.023943966 -0.06847823
000140 7a 13 6b bd 07 c8 c5 3d 52 0a 3e bd 65 5d e4 3c
       -0.05739162 0.09657293 -0.04639656 0.027876565
000150 b7 8e a1 3b 87 fa 8b 3c 54 7a a1 3d 18 12 d8 bc
       0.004930343 0.017087234 0.0788466 -0.026375815
000160 b1 60 40 bd 0d 8e b4 3c 99 1c 8f bd 4d 3a b5 bc
       -0.046967212 0.022040391 -0.069878764 -0.022122527
000170 1d 6c 3e 3d 86 17 34 3d 43 51 7a bd 17 aa f9 3d
       0.046489824 0.043967746 -0.061112653 0.12190645
000180 da 49 7d bd a0 b7 5d bc 35 50 dc 3c cf 5f 02 bd
       -0.06183801 -0.013532549 0.026893714 -0.03182965
000190 73 dd 24 bd 41 f3 bb 3b 7a aa 10 3c 7f d1 64 bd
       -0.040250253 0.0057357852 0.008829707 -0.055863854
0001a0 ec 4d 6a bd b5 13 b9 3d 12 bb d7 bc 1f 6c 8a 3c
       -0.05720322 0.09036962 -0.02633432 0.01689726
0001b0 bc d3 6b 3d 37 0e 2f bd 01 fd 9e 3d db d5 fd bd
       0.057574973 -0.042738166 0.077631004 -0.12394305
0001c0 f3 69 fe bd 2b 3f 99 bd 26 66 63 bc 21 04 9d bd
       -0.12422552 -0.074827515 -0.013879335 -0.07666803
0001d0 a5 88 ab bd 0b c4 70 bd b9 bb e3 3d 14 9e a5 3d
       -0.08375672 -0.05878071 0.1111979 0.08086792
0001e0 69 38 10 3d 0b ef 3c bd 48 9d 75 3d df 57 a7 bd
       0.035210047 -0.046126407 0.05996445 -0.08171057
0001f0 3f dd 97 bc e4 30 ba 3d 4c 39 88 3c be 4c b8 bd
       -0.018538116 0.090913564 0.016628884 -0.089990124

encoder_z.fc11.weight f4 [3, 128]
000000 a7 56 cb bb a7 ee 75 3c 31 20 e6 39 13 9c 9d ba
       -0.006205398 0.015010512 0.00043893003 -0.0012024663
000010 d5 92 1c bb 65 02 ff bb 08 cc d4 bc 38 a0 2f 3a
       -0.002389123 -0.007782268 -0.025976196 0.00066995947
000020 67 55 35 bd 89 5c ac 3a c9 a6 b3 b9 e9 e0 3e 3d
       -0.0442709 0.0013150136 -0.00034265805 0.04660121
000030 82 bb 57 3d 24 e8 a1 bb da 72 86 bc 4a 9c fc bb
       0.052669056 -0.0049410034 -0.016412187 -0.007709061
000040 01 90 3d 3a 99 4c 4d 3d 92 86 8f bb f0 17 82 bb
       0.0007231236 0.050121877 -0.0043800557 -0.0039701387
000050 79 34 32 3d 23 8c c4 bc 63 7d b4 3c 8c 18 21 bb
       0.043507073 -0.023992604 0.022032445 -0.0024581281
000060 7e f1 a1 39 6b 33 43 3d de 3e 18 3c dc 60 9e bd
       0.0003088824 0.047656458 0.009292332 -0.07733318
000070 97 7a 4c 3b 07 e2 33 bc 60 15 78 3d 3b 53 a4 bc
       0.0031201 -0.010979182 0.06056726 -0.020059219
000080 c8 21 c9 ba 57 e4 19 3b 68 92 83 bd 2f 17 a6 bb
       -0.0015345151 0.0023482048 -0.06424409 -0.0050686817
000090 c5 c1 a9 b8 71 95 9c bd 19 62 40 bd 13 3c 1c ba
       -8.09464e-05 -0.07645691 -0.046968553 -0.00059598795
0000a0 55 5c 37 bd 54 27 f1 3c d3 7a 32 bb 82 9d e3 3b
       -0.04476579 0.029437698 -0.0027233853 0.0069462666
0000b0 84 36 45 3b ac 14 9f b9 e0 98 37 3d 32 d9 90 3c
       0.0030092308 -0.00030342245 0.044823527 0.017681692
0000c0 e3 b1 d4 3c 78 68 7a bd f6 e2 e8 3c 86 ac ea 3a
       0.02596373 -0.061134785 0.028428536 0.0017904199
0000d0 f8 a3 38 3d 4d 73 c7 bc e9 33 60 3c 3c 0d 5a 3a
       0.045078248 -0.024346972 0.013684251 0.0008318012
0000e0 a0 dd eb b9 07 0d 6e bb f3 f5 d5 3c 8c ec 96 ba
       -0.00044987816 -0.0036323683 0.026118254 -0.0011514588
0000f0 5a 03 84 bd 36 64 93 bb 12 23 10 39 31 32 8a 3a
       -0.06445952 -0.00449803 0.00013745975 0.0010543523
000100 9b 74 5b 3c b6 e6 81 3c b8 1e 47 3b 78 61 44 3c
       0.0133945 0.015857082 0.00303833 0.011986129
000110 45 c1 29 3b 9d c1 26 3b 31 90 ba ba d2 93 5b 3b
       0.002590255 0.0025444992 -0.0014233646 0.0033504856
000120 1c 58 c8 3b d4 ad 97 b8 1c be ff 3a 88 a0 b6 3b
       0.006114019 -7.232619e-05 0.0019511613 0.005573336
000130 38 4d 45 bd 34 ba 43 3c 2a 55 4f 3a a8 52 2a 3d
       -0.048169345 0.01194625 0.0007909114 0.041582733
000140 99 eb 2f 3d 5d 98 9e 3d 3f 4c 1b 3d 66 7d 54 bb
       0.042949293 0.07743905 0.03791451 -0.0032423376
000150 56 a6 83 bd 52 4f 41 bd c5 4d 58 bd 13 9c 03 bb
       -0.064282104 -0.047194786 -0.05280854 -0.002008204
000160 b1 0c 82 bd 9e 57 18 3d 5e 1b ae ba e1 7e c5 3c
       -0.06350077 0.037192933 -0.0013283303 0.024108352
000170 e1 94 95 3d 68 9b be 3d b2 68 a0 bb 05 83 e2 bb
       0.07303787 0.09306985 -0.004895293 -0.0069125914
000180 1a c8 89 bd d2 ed e7 3c c8 f9 46 bd 82 76 70 bb
       -0.067276195 0.028311644 -0.048578054 -0.003669173
000190 75 33 bf bd 8e a3 86 bc 30 9e 98 3a e2 fe 39 bd
       -0.093359865 -0.01643541 0.0011643823 -0.04540909
0001a0 2b c0 a4 ba 7f b7 9f 3a e3 87 06 bd fd bb 65 bb
       -0.0012569478 0.0012185423 -0.032844435 -0.0035054677
0001b0 ad e7 34 3d a7 af 07 bd 28 8b 4e 3b ad 21 fb ba
       0.044166256 -0.0331265 0.003151605 -0.0019159816
0001c0 f7 ab 42 3c b9 99 3f 3d bb ab 73 bd 9e 45 3f 3d
       0.01188182 0.04677746 -0.059489947 0.04669725
0001d0 6d 80 42 3c 8a a5 d5 bb 2e 65 8b 3d ec a2 50 3d
       0.011871439 -0.006519978 0.06806408 0.050936624
0001e0 fd c2 c7 b9 a1 a9 9c bd 98 c9 0c 3d 8c 6c c4 b8
       -0.00038101515 -0.07649542 0.034371942 -9.366227e-05
0001f0 8b a2 a5 bb 1a 0c b2 3c 4e 19 45 3a 10 ee 1a 3a
       -0.005054777 0.021734286 0.00075187243 0.0005910108
000200 27 26 00 bc 6e c0 f7 bb e8 d1 13 bd 74 b6 d6 bb
       -0.007821596 -0.007560781 -0.036088854 -0.006552512
000210 80 d4 41 3c 08 8d 15 bc d4 2e 27 3d b3 95 bd 3a
       0.011830449 -0.009127863 0.040816143 0.001446417
000220 02 70 98 3b bd 47 e1 3d 27 d6 10 bc 7e af 9d bd
       0.0046520242 0.11000011 -0.00884012 -0.07699488
000230 8a d2 a7 3c 39 fe d0 bd 25 b1 76 bd c5 47 83 bd
       0.020486135 -0.10204739 -0.060227532 -0.06410173
000240 3d fc 12 3c 75 7b ba 3c 47 9e 83 bd 3a a5 b3 3d
       0.008971271 0.022763947 -0.064266734 0.08771749
000250 f5 93 3e 3c 32 db be bd df ba 02 be 8d 1d ed 3c
       0.011631955 -0.09319152 -0.12766598 0.028944755
000260 f7 ac ad 3c 19 07 e6 bc 72 de 6a 3d 01 f6 13 3b
       0.02120064 -0.028079556 0.057341047 0.002257705
000270 dd ba ce 3d a0 59 ad bd b7 86 11 bd 2a 7f d3 bd
       0.10094235 -0.0846436 -0.035528865 -0.10326989
000280 07 de 1a bd 49 8c 08 bd 23 ae 21 bd f1 26 8b bd
       -0.037809398 -0.03333691 -0.03947271 -0.06794537
000290 c2 84 6c 3d 49 5a a7 3a 5d 03 89 bc 98 55 07 3d
       0.057743795 0.0012767996 -0.016725237 0.033040613
0002a0 23 73 1a 3d 77 80 18 bd d4 c6 ac 3b 20 e6 89 bd
       0.03770746 -0.03723189 0.0052727256 -0.06733346
0002b0 c5 e3 84 bd 90 ca c1 39 10 83 91 bd ba c5 08 be
       -0.06488756 0.0003696275 -0.07105076 -0.13356677
0002c0 df 98 04 3e 47 3c a9 3a 09 30 c6 bd 2f c1 d2 bc
       0.1294894 0.0012911641 -0.09677131 -0.025726883
0002d0 8d fa a7 bd 51 63 b6 bd 27 c1 c2 bd c3 14 e8 3c
       -0.08202086 -0.08905662 -0.09509497 0.028330212
0002e0 a0 97 7c 3c 90 4a af bd 78 4a 94 3c 65 7c 8f bb
       0.01541701 -0.085591435 0.018101916 -0.0043788427
0002f0 32 eb ba bd 9c 7f 0f bd 56 f1 d0 3b c1 1f 6b bc
       -0.09126891 -0.035033807 0.0063764257 -0.014350832
000300 86 94 f5 bc 74 84 e9 bc a2 7e 99 bd 17 3c 95 bd
       -0.029978048 -0.028505541 -0.074948564 -0.07286852
000310 31 30 b0 3d 71 9e 27 3d 51 b7 0e bc d0 b7 91 3b
       0.08602942 0.040922586 -0.008710698 0.004446961
000320 95 b8 8b 3d 25 1d dc 3c 53 e7 90 3b fa 86 94 3d
       0.068223156 0.026869366 0.0044221072 0.07252307
000330 25 d9 fb bb 89 10 2a bd 93 f0 43 bd 6e d0 c8 bd
       -0.0076857978 -0.041519675 -0.04783685 -0.0980538
000340 2b 78 df 3c 68 40 93 bd c7 96 18 bb 02 18 39 bc
       0.02727898 -0.07190019 -0.002328323 -0.011297228
000350 20 ca b1 3d ff ad 52 bd f2 f3 d6 3c d5 5c ca 3b
       0.086811304 -0.051435467 0.026239369 0.006175617
000360 7c 96 17 bc a7 ea 07 bd 35 13 f5 ba b2 85 ff 3d
       -0.009252187 -0.033182766 -0.0018697741 0.12476672
000370 13 43 13 3e 78 2b c2 3b eb 09 8d bd 7e f1 f6 3d
       0.14381056 0.005925592 -0.06886657 0.1205778
000380 b3 03 4d 3d 03 aa a1 bb 89 41 72 bc 87 c0 9b bd
       0.050052356 -0.004933597 -0.014786133 -0.07605081
000390 4a d1 36 3d 81 bf d6 3d 81 6d 32 3c 42 46 0f 3d
       0.044633187 0.10485745 0.010890366 0.034979112
0003a0 a6 e0 04 bd 60 2c d6 3d 94 8e ea bd e3 c6 78 bd
       -0.032440804 0.104576826 -0.11452976 -0.06073655
0003b0 41 0b 0d bc d1 c5 ef bd 61 e2 ef 3d b2 86 02 be
       -0.00860864 -0.11707652 0.117131 -0.12746695
0003c0 f9 dc a5 ba 91 10 05 3d 75 e8 af 3d d0 9c 14 bd
       -0.0012654356 0.032486502 0.085892595 -0.03628236
0003d0 07 ff ae bd 0d 9e 65 bd cd c4 82 bd 28 7d 7c 3c
       -0.08544736 -0.056058932 -0.06385193 0.015410699
0003e0 93 90 92 ba 08 88 76 bd 8c a1 18 bd 04 e2 03 bb
       -0.0011182002 -0.060188323 -0.037263438 -0.002012373
0003f0 53 0a e2 3d 00 e4 9e bd c2 af dc 3d ce 17 e8 bc
       0.110371254 -0.07758331 0.10775711 -0.028331663

encoder_z.fc11.bias f4 [3]
000000 3d 91 1d 3d 7b 16 3b bd fc ea 1f bd
       0.03846859 -0.045675736 -0.039042458

encoder_z.fc12.weight f4 [3, 128]
000000 01 15 6d 3c 46 14 b8 bd b1 2f 51 bd 4b da 00 3d
       0.01447034 -0.08988242 -0.051070873 0.03145818
000010 9c 69 f8 3c bf 74 84 bd bf c4 1b bd db 00 a2 3c
       0.030323796 -0.0646758 -0.03802943 0.019775799
000020 3a ea d9 bd ba a2 24 bc 96 fa 26 bd b8 c0 c6 bc
       -0.10640378 -0.010048563 -0.04076632 -0.024261817
000030 ac 08 17 bc fb 0b e0 3c 44 a8 b4 39 03 cd 9b bd
       -0.009218376 0.027349463 0.00034457643 -0.07607462
000040 22 02 11 3d 5d ff 18 be 97 97 d9 bd 81 29 10 3c
       0.035402425 -0.14941163 -0.106246166 0.008798958
000050 e1 e1 be 3c 22 31 9e 3c 7b ee 29 3d e0 dc 80 3d
       0.023301067 0.019310538 0.0414872 0.062921286
000060 1d da 20 3d 43 6a 11 3e 3f 8d 04 bd ae da bf bd
       0.03927051 0.14200692 -0.032361265 -0.09367882
000070 76 c7 1d be 00 e2 0c bd db a3 92 bd ae c7 9f 3c
       -0.1540812 -0.034395218 -0.07160159 0.019504394
000080 f8 47 e6 bd 5c 69 88 3b 48 d5 0e 3e 6f 12 2b 3b
       -0.11244196 0.0041629504 0.13948548 0.0026103517
000090 be 59 93 3c b8 19 c7 3d a0 f6 1e 3e 00 04 23 3c
       0.017987128 0.09721702 0.15523767 0.009949684
0000a0 28 03 6a 3c 18 04 e9 3d 7d e6 05 3e ae 2b 5f 3d
       0.014282979 0.11377734 0.13076206 0.054485016
0000b0 f5 73 f2 bc f2 2f 93 3d 29 f6 e3 3c 57 2d c3 bc
       -0.029596308 0.07186879 0.02782734 -0.02382533
0000c0 5b bd 27 bd 2c 2b 81 3d d0 1a 1d 3d 10 e3 92 bd
       -0.040952068 0.063070625 0.03835565 -0.07172215
0000d0 38 7a e3 3d 90 31 28 3d 38 8a a2 bd 05 66 11 bd
       0.11107296 0.04106289 -0.079365194 -0.035497684
0000e0 cf fe 8d bc e2 7f 6a 3d ab 16 8c bd 85 76 47 3d
       -0.017333416 0.057250865 -0.06840261 0.048697013
0000f0 73 42 ad bd 7b db 27 3e 6c 82 c9 bd a9 4a 00 3e
       -0.0845994 0.16392319 -0.09839329 0.1252848
000100 94 96 db 3d a8 53 5d 3d b0 6a c7 bc 84 18 8c bb
       0.1072208 0.05403486 -0.024342865 -0.0042753834
000110 38 54 33 3d 5c 3a d7 bd c0 53 08 3e 07 a7 9a bd
       0.04378149 -0.10509178 0.13313198 -0.07551389
000120 67 e1 09 3e a4 00 6e bc 68 9d 8c bb 27 52 96 3c
       0.1346489 -0.01452652 -0.004291225 0.01834972
000130 f2 37 d0 bd c3 ba 4d 3d fe 9f 09 3d af e5 65 bd
       -0.10166921 0.050226938 0.033599846 -0.056127246
000140 a9 7e e3 3d 74 32 e6 bd 14 aa 3a 3d ed 21 15 3d
       0.11108143 -0.11240092 0.045572355 0.036409307
000150 97 8c 1f 3c de d4 d9 bd 3d 2f 0b be 8e d2 22 3d
       0.009738109 -0.10636304 -0.13592239 0.03975158
000160 97 48 bf bd ee 8a 87 3d c4 03 c9 bb 60 ae 76 bd
       -0.09340017 0.066182956 -0.006134482 -0.06022489
000170 8a 65 0e 3d 2c 88 89 bd 83 62 61 3d 84 d9 f4 3c
       0.034764804 -0.06715426 0.05502559 0.029888876
000180 1e 29 1f bb 0b 30 18 3e 6d 58 73 3d 73 a0 45 bd
       -0.0024285982 0.14862077 0.0594105 -0.04824872
000190 72 8d 20 3d f1 82 bc 3d 64 01 7e bd 08 16 af 3b
       0.039197393 0.092046626 -0.062013045 0.0053432025
0001a0 eb fc e4 3c 9c c4 57 3b 36 1e 8f 3c fb ae 16 be
       0.027952632 0.0032923585 0.01747046 -0.14715187
0001b0 03 8d bd 3d 76 c2 b1 bb db 6e f0 bd 45 14 a9 3d
       0.092554115 -0.005424793 -0.11739894 0.08255819
0001c0 40 21 95 3d 71 f4 cc 3d 03 44 6e bc ca ea 8c ba
       0.072817326 0.10007561 -0.014542582 -0.0010751125
0001d0 70 9d 08 3e fb 86 87 bb 5b a6 02 be f8 2d d2 bd
       0.13341308 -0.004135964 -0.12758772 -0.10262674
0001e0 d8 d0 49 bd 77 72 e1 3d 9d 17 3b 3d 6e 0a a8 3d
       -0.049271435 0.110081606 0.045676816 0.08205114
0001f0 0f 71 ec 3d e3 ff 6e 3d 59 d6 5f bc 47 ac 7e bd
       0.11545002 0.0583495 -0.013661944 -0.062176015
000200 d7 96 8f 3d ee 28 bc bd 8d de b1 3d 1e bf a0 3c
       0.07011192 -0.09187494 0.08685026 0.019622382
000210 2e ab ab 3c 36 98 30 bd 2b c4 8c bd 54 49 76 bc
       0.020955648 -0.04311391 -0.068733536 -0.015032131
000220 f9 c0 a8 bd f6 4e 06 be 25 ae 19 bd 2f ee 09 bd
       -0.082399316 -0.13116059 -0.037519593 -0.033674415
000230 c0 27 cb bd dd c6 0a 3d 2f 46 d1 bd 9f 93 7e 3d
       -0.09919691 0.033881057 -0.102184646 0.0621525
000240 36 e9 4d bd 3e 6b ea bd 6a 36 1b 3b 55 36 e8 bd
       -0.050271235 -0.11446236 0.0023683556 -0.11338488
000250 74 b6 b8 3d fe f0 f9 bd 3d f8 b7 bd d5 39 c1 bd
       0.09019175 -0.12204169 -0.089828946 -0.09434859
000260 81 91 8f 3b b0 f7 93 bd 82 ef 28 3c 56 55 85 bd
       0.004381359 -0.07224977 0.010311009 -0.06510417
000270 3a 92 38 bd 56 67 a7 3c 4b ac a6 bc aa 33 a9 bc
       -0.045061328 0.020435017 -0.020345828 -0.020654518
000280 25 e8 ae bd 3b 88 aa 3d cc e5 5d bb f2 9e 74 3c
       -0.08540372 0.08326765 -0.0033858893 0.014930474
000290 7d ef a9 3d 4d d6 10 bd f2 89 eb 3c ff 1a 87 bc
       0.08297632 -0.035360623 0.0287523 -0.016492365
0002a0 d8 bd 39 3d bc 09 2a 3c 3e 81 25 3d 51 5c 08 3d
       0.045347065 0.010378297 0.040406458 0.033291165
0002b0 b9 1a 82 bd 27 ae e9 3d fd 38 3b be eb b8 fb 3d
       -0.06352753 0.1141017 -0.18283458 0.1229113
0002c0 9c 1a 91 3d 3e 0f 73 3d 3c 71 c7 bc 3d f4 8a bd
       0.070851535 0.059340708 -0.024345987 -0.06784866
0002d0 0e 60 ca bd b8 a2 9a bb 8f e2 b1 3b 00 10 c8 bc
       -0.09881602 -0.0047191046 0.005428619 -0.024421692
0002e0 bf 1b 0d bd c4 20 d0 bc ab 85 d8 bc 2e bb 3a 3d
       -0.03445029 -0.025406249 -0.026430925 0.045588665
0002f0 6a 7d 66 bd 79 1f 00 3e 53 4d f4 bc 88 61 9d bd
       -0.056271948 0.12512006 -0.029822027 -0.07684618
000300 f8 0c ae 3d 4b 2c 9f bc 96 16 0f bd f1 af 1a 3d
       0.08498567 -0.0194303 -0.03493365 0.037765447
000310 c1 3b 06 bd 89 d5 04 3e 06 85 e0 3d 6e 74 ac bd
       -0.03277183 0.12972082 0.10962872 -0.08420645
000320 a7 b0 81 3c b8 ec c2 3c 03 3c 36 bd 5e a3 21 3d
       0.015831305 0.023794517 -0.044490825 0.03946244
000330 b3 87 f9 bd e0 23 ff bc dd 34 4c 3d 4b fc c2 bd
       -0.12184086 -0.031145036 0.0498551 -0.09520777
000340 6a bf 83 3d 56 68 ed bc 77 71 ae bc 4f f1 5e 3d
       0.06432994 -0.028980415 -0.021294339 0.05442935
000350 9b c6 6a bc ab 2a eb bd fc b8 2e 3c b4 60 c7 bd
       -0.014329578 -0.11482748 0.010664221 -0.097352415
000360 5f 79 85 3c e5 68 4b 3d e1 85 a6 3d cd 73 1d bc
       0.016293226 0.049660582 0.08131004 -0.009610129
000370 e1 2f c6 bd 30 b4 fb bc 60 a5 0e 3d 28 3d 39 bd
       -0.09677101 -0.030725569 0.034825683 -0.04522434
000380 50 0e 4e 3d 62 cf f5 3d 10 43 36 3d 27 51 8a 3d
       0.05030662 0.12002446 0.04449755 0.0675376
000390 50 f3 ee bc 7c 3e 2c 3d c8 b6 32 3d dd ed 58 bd
       -0.029168755 0.042051777 0.043631345 -0.05296122
0003a0 95 b8 fd 3c 23 88 9b bc c8 47 49 3d 4a 78 69 bc
       0.030971805 -0.018985813 0.04914072 -0.014249871
0003b0 82 22 20 3d 5c 21 b0 3d f3 4a 57 ba 00 6b 0f 3e
       0.03909541 0.08600113 -0.00082127674 0.14005661
0003c0 e9 aa f3 3d 6f 1c 76 3d 48 a1 59 bd d6 aa 00 3e
       0.11897833 0.06008571 -0.053132325 0.12565169
0003d0 ff 7f 60 3d 2c 25 ad 3d a3 49 81 3c 0f aa 47 bd
       0.054809567 0.084543556 0.015782183 -0.048746165
0003e0 6e a9 55 3c 60 ed c7 3d d8 e3 a2 3d f5 5e c1 ba
       0.0130408835 0.097620726 0.07953614 -0.0014753031
0003f0 c7 0f 4b bd 48 3e 0c bd 5c 35 87 bc fc d0 64 bd
       -0.049575593 -0.034239084 -0.016504936 -0.055863366

encoder_z.fc12.bias f4 [3]
000000 58 ee 08 be 21 55 ae bd b6 49 f6 3c
       -0.13372171 -0.08512331 0.030064445

decoder.coord_latent.fc_coord.weight f4 [128, 1]
000000 0c 65 47 3f 4c 56 a9 3e 6d 05 b6 be e8 f1 48 3f
       0.7788856 0.33073652 -0.35551015 0.7849412
000010 94 39 48 be e7 9b d0 3e 69 64 0a bf ad 92 4b 3f
       -0.19553214 0.40743944 -0.54059464 0.79520684
000020 aa 13 6d bf 2a 4d a7 3d bf e1 db be f7 8e 1d be
       -0.9260813 0.08169015 -0.42945668 -0.15386568
000030 e8 1c cb bf ac 52 95 bf 42 4d 91 3f 58 18 6e bf
       -1.5868196 -1.1665854 1.1351702 -0.93005896
000040 6b 79 61 3f b2 4e 96 3f c8 6a 8a be 18 09 90 3f
       0.88075894 1.1742766 -0.27034593 1.1252775
000050 72 7a fb 3e 7e 12 12 3f d5 b2 0c bf f7 3d 10 3f
       0.49116856 0.57059467 -0.54960376 0.5634455
000060 60 63 80 bf d2 20 d7 3e 97 97 97 bf f0 ef ea 3e
       -1.0030327 0.42017227 -1.1843137 0.45886183
000070 13 79 ed be ba 8f 62 bf bd bd 68 3e b9 40 70 3f
       -0.46381435 -0.8850056 0.2272863 0.9384876
000080 8b 69 7f be 72 1b d5 3e de c3 80 bf 0d 5c f6 be
       -0.24942605 0.41622502 -1.0059774 -0.48117104
000090 65 08 9a 3e 19 55 dc be 53 66 be bd bc a7 2f be
       0.3008453 -0.43033674 -0.092968605 -0.1715383
0000a0 31 07 6f bf 91 4f 7b bf 70 70 9c bd d0 f0 02 bf
       -0.9337035 -0.98168284 -0.07638633 -0.511487
0000b0 2f fe db be 4e 39 9d 3f 39 4d bc 3e 47 91 5b bf
       -0.42967364 1.2283113 0.36777666 -0.8576855
0000c0 42 9f c9 3e a8 67 a6 3e c9 e9 4f bf 73 e4 87 be
       0.39379317 0.32500958 -0.812161 -0.2654148
0000d0 6a 76 ec be 5b d3 8c 3c c1 9f aa 3d e2 63 69 bf
       -0.46184093 0.017190626 0.08331252 -0.91168034
0000e0 fd f4 40 bf 73 17 60 bf 81 1e 30 bf 0b 50 6b 3d
       -0.7537382 -0.8753578 -0.68796545 0.05744938
0000f0 2e 80 29 3e ed e0 87 3f 12 e9 fb 3d a9 70 3d 3f
       0.16552803 1.0615517 0.12300314 0.7400003
000100 50 63 19 bc b1 a5 d0 bf 96 72 81 3f e3 67 96 3e
       -0.009362057 -1.6300565 1.0113094 0.29376134
000110 da c9 7d 3f b9 9b 98 bf 2a b5 13 3f a9 3e 86 3f
       0.99136126 -1.1922523 0.5769831 1.0487872
000120 3f de 74 bf 0d 04 fa be 63 85 73 3e 29 14 7e bf
       -0.9565162 -0.48831216 0.23781352 -0.9924951
000130 9b cd f4 3e 27 fc 13 bf 6e 4c 80 bf 46 85 6d 3f
       0.47813115 -0.5780663 -1.0023324 0.92781484
000140 94 ba 8c bf 8e 37 2c 3f 6f 49 1c bf 79 9b 8c bf
       -1.0994439 0.6727227 -0.6104955 -1.0984946
000150 f3 5a 9d bf 9c 60 93 3f d1 2a 53 bf b2 44 3d 3f
       -1.229338 1.1513858 -0.8248721 0.73932946
000160 b5 bf b9 3e 25 6a 9e 3e 4a 39 4b be d6 54 a8 bf
       0.36279073 0.30940357 -0.19846073 -1.315089
000170 63 2d 97 3f 85 a0 a1 bf 6d f6 38 bf 56 55 85 bf
       1.1810726 -1.2627112 -0.72251016 -1.0416667
000180 21 fe 42 3f 3b 07 9e bd 76 a2 1e 3e d0 03 76 3f
       0.7616902 -0.07716223 0.15491661 0.9609957
000190 96 db 86 bf eb 57 92 3f 48 2e 86 3f b3 a5 82 bf
       -1.0535762 1.143308 1.0482874 -1.0206817
0001a0 96 d5 12 3f b3 a0 5b 3f 69 2b ac be fe 99 49 3f
       0.57357156 0.8579208 -0.3362687 0.787506
0001b0 e3 cb 11 3d 85 f4 89 3f 67 62 0d 3f ce 77 8e bf
       0.035594832 1.0777746 0.55228275 -1.1130311
0001c0 59 fb 52 3f ca 11 42 bf 41 fb 60 3f f9 39 8f bd
       0.82414776 -0.75808394 0.87883383 -0.06993479
0001d0 3e 27 ba 3b 42 d7 3d bf 93 cc b5 be 3c 18 37 bf
       0.0056809476 -0.7415658 -0.3550764 -0.71521354
0001e0 ad 90 1f 3f 98 91 05 3f 78 28 5f 3f 35 58 13 bf
       0.6233013 0.52175283 0.87171125 -0.5755647
0001f0 49 4d 0b 3f e0 ff 43 bf f7 2c 38 bf c6 a6 9c be
       0.544148 -0.7656231 -0.7194361 -0.30595988

decoder.coord_latent.fc_coord.bias f4 [128]
000000 94 2e 67 bf 0a 72 27 bf 80 5a 6d 3f a9 8c 45 3e
       -0.9030545 -0.65408385 0.9271622 0.19291939
000010 e3 35 ad be e3 11 73 bf 2c c3 ec be 1f ca 96 3d
       -0.33830175 -0.9494917 -0.46242654 0.0736277
000020 69 9a 86 bf 00 cd 30 bf 1e 03 6e 3e fb 2f 68 3e
       -1.0515872 -0.69062805 0.23243377 0.22674553
000030 30 eb 37 be 2f f0 43 bf 24 31 83 bf 71 02 86 3d
       -0.1796081 -0.76538366 -1.0249372 0.065434344
000040 51 16 f7 be aa f5 7c 3c 03 31 0c 3f 4e 0c 06 bf
       -0.48259214 0.01543943 0.54762286 -0.52362525
000050 bf 6e 4a bd 02 52 fc be 88 ef 20 3f 22 de 1b bf
       -0.049422022 -0.49281317 0.62865496 -0.6088582
000060 2d c4 41 3f b4 6e 6b bf 38 79 3d 3f 5f cc 5b be
       0.75689965 -0.91965795 0.7401309 -0.2146468
000070 ad a4 7b 3e e7 be 32 bf 68 de 39 be 1b ce 06 bf
       0.24574538 -0.69822544 -0.18151248 -0.5265824
000080 cf cf 2b bf 36 b1 36 bf 1a 90 6d 3f 7e 92 62 3f
       -0.67113966 -0.7136415 0.92798007 0.8850478
000090 e7 a4 1c 3e bb 44 df 3e 4a 27 2f be c1 14 5d bd
       0.1529728 0.43607125 -0.17104831 -0.05397487
0000a0 49 2f ec 3d 0e 15 1b 3f 0b 17 48 be 73 7b 21 be
       0.115324564 0.60579 -0.1954004 -0.15769748
0000b0 f1 88 03 3f 09 a6 19 3e 9e 9f 7f 3f 5b b4 30 3f
       0.5138083 0.15004744 0.9985293 0.690252
0000c0 e2 6e 16 3f fe 5a 80 3f 3f 63 a5 3d d1 e4 4e bf
       0.58762944 1.0027769 0.0807557 -0.80817896
0000d0 c8 0f 57 3f 37 9c a5 3e 0e 1c fe 3e d1 5f 30 be
       0.84008455 0.32345745 0.4963078 -0.17224051
0000e0 8d 89 8d 3d 1a 05 5d 3f ae 8f 81 bf e0 f1 6b bf
       0.06911001 0.8633591 -1.0121973 -0.92165947
0000f0 a5 3c 7a 3e 76 28 bd be c8 d7 73 be 23 ba ac be
       0.24437197 -0.36944932 -0.23812783 -0.3373576
000100 1d 3b 65 3f 1a 1f 96 be 74 4b 6b 3e c3 1d 79 bf
       0.89543325 -0.29320604 0.22978002 -0.9731104
000110 a0 69 63 3f 90 dd 14 be 5c 89 75 3f 2b 53 68 bf
       0.88833046 -0.14537644 0.9591272 -0.90751904
000120 5d 2a d5 be 1a 41 13 3f 77 1b f8 be 15 4b ab 3d
       -0.41633883 0.5752121 -0.48458454 0.0836393
000130 d3 05 af 3d fd ac 3e 3f 71 af ac 3e 39 b8 1f 3f
       0.08546033 0.7448271 0.337276 0.62390476
000140 0d 77 7f 3e c5 82 2e 3f 04 b6 39 bf bd 47 4f bc
       0.24947758 0.6816829 -0.7254336 -0.012651381
000150 2f c0 82 bc ee 3d b9 be 7d 53 c1 3e 36 96 28 3d
       -0.01596078 -0.3618006 0.3775901 0.041158877
000160 72 d7 b5 be 27 c8 64 be ff 1f 08 bd c8 ca 4b be
       -0.35515934 -0.22341977 -0.03323364 -0.19901574
000170 1c bf 70 bf fa 0a 1d be ad 2c 23 3f 45 38 74 3f
       -0.9404161 -0.15336218 0.63740045 0.9539836
000180 05 d9 c0 3e bb 01 7e bf e7 7f f2 3e 85 62 6e be
       0.37665573 -0.9922139 0.47363207 -0.2327977
000190 59 0f 17 3d de 8d 0a be 3e 74 14 bf 61 35 b0 bd
       0.03687987 -0.1353068 -0.5798987 -0.08603931
0001a0 87 40 3f bf 23 42 3c 3f 81 34 e9 3e 32 29 fd be
       -0.74707836 0.73538417 0.4554787 -0.49445492
0001b0 19 ec 3f bf 9f 15 64 bf 22 22 95 be 2a 85 84 bf
       -0.7496963 -0.8909549 -0.29127604 -1.0353138
0001c0 25 c9 6b 3f 55 69 16 3f 13 26 ba bd 73 5f 70 bf
       0.921038 0.58754474 -0.09089293 -0.93895644
0001d0 64 2c 36 3f 4f 05 34 3e 67 3d 49 3f ff ae 7d bf
       0.71161485 0.1758015 0.7860932 -0.9909515
0001e0 6b 7b 13 bf 3e b4 03 3f b8 08 69 bf f1 9f 6c 3f
       -0.57610196 0.514469 -0.9102893 0.9243155
0001f0 b0 30 0a be c5 01 8a 3e ee f3 24 3f 66 8a b3 3e
       -0.13495135 0.26954475 0.6443471 0.35066527

decoder.coord_latent.fc_latent.weight f4 [128, 2]
000000 d5 50 6f 3e 87 e5 1b bd 88 12 55 3e b6 69 83 3e
       0.23370679 -0.03806069 0.2080785 0.2566659
000010 b7 6f 30 bd 54 33 34 3f 23 fc 10 bf 9f 93 09 3e
       -0.04307529 0.7039082 -0.5663473 0.13435219
000020 48 f4 05 bf cd bb 2c 3d 69 ec 4e bf 28 32 0e bf
       -0.5232587 0.04217129 -0.80829483 -0.5554528
000030 52 ea 33 3f 34 2d 75 3f 58 3c fc 3d 88 5e 19 be
       0.7027942 0.957721 0.12316197 -0.14977467
000040 e0 86 01 bd a6 ed 19 bf a5 75 ea 3d be c6 c7 3a
       -0.031622767 -0.6012825 0.1144822 0.0015241725
000050 52 b3 16 bf 04 12 1f 3f 65 21 91 3e be ba 8c 3d
       -0.5886737 0.62136865 0.2834579 0.06871556
000060 22 7a fb be c1 74 44 3e 0c aa 2d be 62 01 43 be
       -0.49116617 0.19185163 -0.16959399 -0.19043496
000070 86 d5 25 3f f9 cf 89 3e c7 a7 d0 be 9e c6 fa be
       0.64778936 0.26916483 -0.40753004 -0.48979658
000080 2c 2d 60 3d 20 50 93 3b 7f 0a ba 3e 77 08 bd 3e
       0.05473058 0.0044956356 0.36336133 0.3692052
000090 b8 ae 77 3e 9d 0b 72 bd 82 ac 0c 3c a7 81 92 be
       0.24187744 -0.059093107 0.008586051 -0.28614542
0000a0 34 b2 41 3f 3f a1 b2 bd 79 83 a1 3d 5a 84 81 3d
       0.7566254 -0.087221615 0.078864045 0.06324072
0000b0 49 67 06 3e bd af c0 3e 81 5c 2f 3f aa f8 83 be
       0.13125338 0.37634078 0.68500525 -0.25775653
0000c0 fa 5a 21 be d0 d4 a4 3d 41 41 3f be 66 92 40 3d
       -0.15757361 0.08048403 -0.18677236 0.047014616
0000d0 9d 2a 57 bc 5d 9b 8f be 35 87 9c bc 40 70 09 be
       -0.013132718 -0.2804822 -0.01910744 -0.13421726
0000e0 f4 db e8 be 31 f0 2d be 06 0a ef 3e ff 19 ca 3e
       -0.4548031 -0.16986157 0.46687335 0.39472958
0000f0 6a 16 bc be d8 e8 cd be 47 e0 99 3d c6 20 bd bd
       -0.3673585 -0.40216708 0.07513481 -0.09234767
000100 ab 1e 25 bf e8 32 2d be 43 ae bf 3e bb 7c 1d 3f
       -0.6449992 -0.1691395 0.3743764 0.6151845
000110 00 bd 1a 3e d8 ac df be 7c 4a 09 3f f0 2a cc 3e
       0.1511116 -0.43686557 0.5362928 0.3987651
000120 fa 74 5f 3e eb b2 f0 3c 05 e1 1b 3f 6d 57 62 3d
       0.21821967 0.02938219 0.6089023 0.055259157
000130 14 4e 8a bd 8a af 54 bf a6 fa 2b bf 07 52 9e bf
       -0.067531735 -0.8308035 -0.67179334 -1.2368783
000140 3e 9d 02 3f 7c ce 67 3e bd 2b ff be b1 3e 1f 3e
       0.5102118 0.22637361 -0.49838057 0.15551259
000150 cd 78 90 bf 43 ba f3 3e 1e dd cc 3e 17 3c 9f bd
       -1.1286865 0.47603044 0.4001245 -0.07775133
000160 ea 54 b7 be a5 bc b0 3e 3a 50 00 bf ca d0 1e 3f
       -0.35806972 0.34518924 -0.50122416 0.62037337
000170 16 db 0e 3e 8e 3e 94 bd 5f bc 69 bd e6 a8 fa bd
       0.13950762 -0.07238494 -0.05706441 -0.12239246
000180 84 03 11 bf 56 8b 67 3d d1 9e 47 3e c1 7e 28 be
       -0.5664599 0.056529365 0.19494177 -0.16454603
000190 0c 0d 81 3e cf be cc be 93 d1 80 3e 48 16 ab be
       0.25205266 -0.39989325 0.25159892 -0.33415437
0001a0 71 1f 0f bf 64 fa de be f2 e4 2d 3f e7 8d 5a 3f
       -0.5590735 -0.43550408 0.6792747 0.85372776
0001b0 69 85 d2 3d bd 62 a7 be 30 77 08 bf 28 3f 10 3d
       0.10279352 -0.3269252 -0.53306866 0.03521648
0001c0 13 de dc 3e 36 b9 1f be 39 1d 6e 3d 33 8a ea 3e
       0.4313818 -0.15597996 0.058133338 0.45808563
0001d0 5d af b5 be af 00 fc 3e 2d f3 0b 3f ee ec 35 bf
       -0.35485354 0.49219272 0.5466793 -0.7106465
0001e0 49 c0 80 3e db ee 50 be 8a 39 22 be 0c 16 b7 3e
       0.25146702 -0.20403616 -0.15842262 0.35759008
0001f0 43 22 08 bf cf aa 28 3f 99 db f4 be 88 51 02 be
       -0.5317728 0.65885633 -0.4782379 -0.12726414
000200 22 3e 17 3f f7 30 5c bf 72 80 9a be 92 de ba 3e
       0.5907918 -0.86012214 -0.3017612 0.36497933
000210 35 d7 0a be 5d 9f 06 3f f9 81 1c 3f 32 54 69 3e
       -0.13558657 0.5258692 0.6113582 0.22786024
000220 41 d8 0b be f3 7f d0 3d dd ac 1f bd 6b 91 61 3e
       -0.13656713 0.101806544 -0.038983215 0.22028129
000230 ed e1 1a bf 6b 0a 87 be cb 0d 52 3e d8 da 84 be
       -0.60500985 -0.26375136 0.20513074 -0.25948215
000240 d4 37 07 bf 9e 3a ea bd 2f ff 1f 3f f2 40 0f 3d
       -0.5281956 -0.114369616 0.62498754 0.034974046
000250 8b dd 4a bf 9a d5 31 bf d0 64 0d 3f 37 92 24 3e
       -0.792443 -0.69466555 0.5523195 0.16071402
000260 8c 4e a6 be e8 fc 89 bf 1d 14 22 3f 2c ab 33 3c
       -0.32481802 -1.0780306 0.6331194 0.0109661035
000270 fb f8 29 3e a7 61 ba be 0a 1f a5 be a4 a3 13 bc
       0.16598885 -0.36402628 -0.32250243 -0.009011183
000280 22 07 6e 3d 4e 74 cf bd df 14 99 3e fd db c8 be
       0.05811227 -0.10129605 0.29898736 -0.39230338
000290 ba 26 97 3e db 64 bb be cb a8 b5 3d 16 59 be 3e
       0.29521734 -0.36600384 0.08870085 0.37177342
0002a0 3b 78 36 3e 59 b5 21 3e ec 9b 0f 3f 74 b2 47 3e
       0.17819302 0.15791835 0.5609729 0.19501668
0002b0 94 bc b0 3d f9 a7 e8 bb 75 a3 24 bf 4f 8f 2d bf
       0.086297184 -0.007100102 -0.64311916 -0.67796797
0002c0 d2 a3 78 3e c2 0f 0a bf ac 36 8a be f2 73 d5 3d
       0.24281242 -0.53930295 -0.26994836 0.104225054
0002d0 47 e8 67 bf 1f 1c fc be 85 e5 06 bd 4e 7f 09 bf
       -0.905888 -0.49240205 -0.03293373 -0.53709877
0002e0 64 33 df bd 94 13 97 3e 25 e5 82 3e 72 83 04 bf
       -0.10898474 0.29507124 0.25565448 -0.5176307
0002f0 6c 18 56 3d 6f 34 a7 3d 1c 59 b4 be d2 c0 01 3f
       0.052269384 0.08164298 -0.35224235 0.50684845
000300 db cf 33 bf a5 e4 0b be ea fd 1e bf ef 42 d1 3e
       -0.7023904 -0.1366144 -0.6210619 0.4087138
000310 8b de a2 bd d8 01 93 3e be ee e8 be 6c 7b 73 bc
       -0.07952603 0.28712344 -0.45494646 -0.014860969
000320 ca 77 60 3f 25 7c 03 bf 0e 73 22 bf cd 27 f5 bd
       0.87682784 -0.51361305 -0.6345681 -0.11970482
000330 ee 93 74 3e 63 26 b7 be 01 d2 de 3e f3 7f 8b bd
       0.23884556 -0.35771474 0.43519595 -0.06811514
000340 4f 49 24 3f 01 56 91 3e aa aa 49 3f c7 e0 24 3f
       0.6417436 0.28385928 0.7877604 0.64405483
000350 50 90 06 3f 09 e6 24 bf fa 38 93 be 51 2e fe 3d
       0.52563953 -0.64413506 -0.28754407 0.12411178
000360 cc 99 e8 be 2d 39 58 3d c5 af 83 3e ad bb 88 3e
       -0.45429838 0.052788902 0.2572004 0.26705685
000370 4c 36 f7 3d f7 18 35 3e 59 69 81 be 3a 3c bc be
       0.12070903 0.17685305 -0.25275686 -0.367647
000380 6d a8 9c 3e c7 ec 47 3c a0 34 91 bd 79 4f 28 3e
       0.3059725 0.012202448 -0.070901155 0.16436566
000390 a0 17 7a 3e 41 38 40 be d3 76 00 bd a8 04 67 3f
       0.24423075 -0.18771459 -0.03136332 0.9024148
0003a0 1a 91 1c 3f e0 b3 8f be 39 46 87 be a1 32 53 be
       0.6115891 -0.2806692 -0.26420763 -0.20624782
0003b0 06 93 36 3f f5 6d 87 bd 1b ef 06 3f 4c 2e 11 bd
       0.7131809 -0.066127695 0.52708596 -0.035444543
0003c0 56 18 0a 3f 41 2e 92 be 94 e4 87 bd 0b 4b 5f 3f
       0.53943384 -0.28550914 -0.06635395 0.8722388
0003d0 fc 7a 33 bd 4b 79 d4 3d d5 3c 1b 3f e1 cb eb 3e
       -0.04381846 0.10374697 0.606397 0.46053985
0003e0 7f db 14 bf 90 1a 36 be 82 8a 80 bd 08 54 b2 3e
       -0.58147424 -0.1778357 -0.06276418 0.34829736
0003f0 82 1c ed 3d 40 75 cd be 32 7c e6 3e eb dd 0d bf
       0.11577703 -0.40128517 0.45016629 -0.55416745
