data/svae_model_250.pth (torch, 466870 bytes, 16 tensors)

encoder_z.fc_layers.0.weight f4 [128, 500]
0.023043271 -0.019739036 -0.008669749 0.020990815 -0.04210234 0.026820172 -0.009200316 0.022751722
0.006217029 -0.0054758675 0.012403958 0.002206184 0.016333502 -0.01742796 -0.003260579 -0.0040261447
0.006482091 -0.00017865375 0.039093923 0.013916846 -0.016654514 -0.027009973 -0.0074959993 -0.019290144
-0.014330894 0.0021413304 0.026659641 0.024307702 -0.043717407 0.027723689 0.012493532 0.04242069
0.029518772 -0.04074732 -0.042521447 -0.021570548 0.039270353 -0.007449191 0.019138929 -0.020782528
0.043881405 -0.01892154 0.03353766 0.0005295761 -0.023559993 0.022987444 -0.023738999 0.013152763
-0.0129136145 -0.004903 -0.042994585 -0.021322329 0.024267334 -0.010870747 0.044544693 0.035848122
-0.0020940155 -0.029850751 0.02723362 0.013879593 -0.028908772 0.029048521 0.027150419 0.039663147
-0.025068989 -0.0073614046 -0.0008663349 0.0065318905 -0.03393986 -0.03173528 0.024328623 -0.0104868
0.021845195 0.0025495626 0.014684029 0.00983372 0.016260661 0.022168856 -0.04141699 0.022510562
-0.031444628 -0.033742666 0.0027197003 -0.0076208413 0.02626593 -0.025899734 -0.039756484 0.032546807
-0.006631363 0.02515385 0.014377229 -0.033535443 0.0089844465 0.010741919 -0.029943574 -0.021219047
0.015248895 0.0080106035 -0.019023241 -0.013537867 0.04095952 -0.0082744025 0.025213528 0.019364495
-0.028908206 -0.038032368 0.04292753 0.0023352057 0.03065462 0.009267669 0.014383405 0.03340501
0.042405453 -0.029676247 0.005591467 0.033373643 0.03239772 0.02778263 -0.032365695 -0.03220404
-0.02704621 0.0056182705 0.044572208 -0.028249392 0.023831163 -0.024752744 -0.042047728 -0.009505063
0.025767151 0.041518185 -0.0277737 0.009705037 0.03858828 0.02963477 0.027871381 0.031780455
0.028286997 0.011551365 -0.030581366 -0.037555143 -0.020492248 -0.0052076206 -0.027412059 0.016361475
0.013840716 -0.010126494 0.017188244 0.014453262 0.027304132 0.030117314 -0.015145011 0.04369392
-0.0051701367 -0.0015364476 -0.042211603 -0.028783392 -0.026126375 -0.019128352 0.031795528 -0.014614092
-0.03341943 0.017206538 0.014318418 0.028965611 -0.023142058 0.00969626 -0.01628084 -0.01004776
-0.035639275 -0.02038225 -0.013696263 0.01912443 0.00817012 0.0110469125 0.04463662 0.043586668
0.030502077 0.0014240853 -0.030937854 0.034950178 -0.011183176 -0.0036155134 -0.038527407 -0.008833747
-0.028844733 0.041094724 -0.038662557 -0.03485953 -0.0015185699 -0.024181532 0.016001824 -0.017214397
-0.021005068 0.0025329143 0.0323737 -0.031458065 0.021001432 0.02873085 0.04374631 -0.031301863
0.010831062 -0.033068176 0.03818087 -0.017347699 0.026938032 0.0013314188 -0.0034830198 -0.0014269613
0.0076023825 0.021081474 0.0071724057 0.013642471 -0.04022797 0.032581184 0.03899094 0.03696694
0.033059042 -0.03227234 -0.016578209 0.039431956 -0.034062408 0.04057217 -0.035173174 -0.03150211
0.021863293 -0.03213181 -0.010245696 0.032534424 0.03542329 0.042295482 -0.009074744 -0.034760162
0.044033144 -0.009526819 -0.018399939 0.010901898 -0.031274743 0.029394466 0.028028343 -0.035485562
-0.03673289 -0.0039174296 0.01878411 -0.0012952276 -0.0226772 0.0010224395 -0.042035047 -0.031607315
-0.029770534 0.036829393 0.039422143 -0.015190359 0.002005767 0.019944739 0.005358398 -0.022394337
00000000: 3ec5 bc3c c2b3 a1bc 900b 0ebc eef4 ab3c
00000010: 8173 2cbd fab5 db3c ecbc 16bc d261 ba3c
00000020: 38b8 cb3b e86e b3bb f839 4b3c a095 103b
00000030: d6cd 853c 15c5 8ebc 70af 55bb c0ed 83bb
00000040: b867 d43b 0055 3bb9 f320 203d 7c03 643c
00000050: 0c6f 88bc 0544 ddbc 00a1 f5bb 5d06 9ebc
00000060: 20cc 6abc 9055 0c3b 5265 da3c f220 c73c
00000070: 0611 33bd ca1c e33c acb1 4c3c 51c1 2d3d
00000080: 5ad1 f13c a9e6 26bd f82a 2ebd b8b4 b0bc
00000090: f3d9 203d 5818 f4bb 3ec9 9c3c 1f40 aabc
000000a0: fdbc 333d 5801 9bbc c95e 093d 40d3 0a3a
000000b0: e300 c1bc 2a50 bc3c 4a78 c2bc b07e 573c
000000c0: a093 53bc 58a9 a0bb 171b 30bd 2aac aebc
000000d0: 4acc c63c 381b 32bc 7f74 363d 7bd5 123d
000000e0: c03b 09bb 9089 f4bc 0a19 df3c 3c67 633c
000000f0: 17d2 ecbc 2af7 ed3c 8e6a de3c d375 223d
00000100: 7b5d cdbc f037 f1bb c01a 63ba 7809 d63b
00000110: 8604 0bbd dafc 01bd d24c c73c d4d0 2bbc
00000120: b2f4 b23c 9016 273b 4895 703c 9c1d 213c
00000130: 1435 853c 769b b53c dda4 29bd 1268 b83c
00000140: 15cc 00bd c035 0abd 003d 323b 40b8 f9bb
00000150: a62b d73c ae2b d4bc b2d7 22bd cd4f 053d
00000160: e84b d9bb 720f ce3c 788e 6b3c 765c 09bd
00000170: 8033 133c e0fe 2f3c 3a4c f5bc 91d3 adbc
00000180: 80d6 793c e83e 033c a1d6 9bbc eecd 5dbc
00000190: 2bc5 273d 5c91 07bc 9a8c ce3c 4aa2 9e3c
000001a0: e7d0 ecbc d4c7 1bbd c7d4 2f3d 400a 193b
000001b0: 661f fb3c 6cd7 173c 60a8 6b3c b1d3 083d
000001c0: 57b1 2d3d 9a1b f3bc a038 b73b cdb2 083d
000001d0: 79b3 043d 6698 e33c e491 04bd 62e8 03bd
000001e0: 0390 ddbc 7819 b83b 5991 363d 456b e7bc
000001f0: 9239 c33c 44c6 cabc 3d3a 2cbd 20bb 1bbc
00000200: a215 d33c f90e 2a3d ac85 e3bc e001 1f3c
00000210: bf0e 1e3d 9ec4 f23c 8652 e43c 392c 023d
00000220: 22ba e73c f041 3d3c c685 fabc 6cd3 19bd
00000230: 5cdf a7bc b0a4 aabb 418f e0bc 8008 863c
00000240: 2cc4 623c 98e9 25bc 5cce 8c3c 60cd 6c3c
00000250: eaac df3c 96b8 f63c c822 78bc 65f8 323d
00000260: 406a a9bb a062 c9ba 13e6 2cbd 26cb ebbc
00000270: fb06 d6bc 10b3 9cbc 073c 023d f26f 6fbc
00000280: d0e2 08bd baf4 8c3c cc97 6a3c 4a49 ed3c
00000290: 6a94 bdbc 10dd 1e3c 655f 85bc 5c9f 24bc
000002a0: 7dfa 11bd adf8 a6bc 4a66 60bc d6aa 9c3c
000002b0: f8db 053c 1cfe 343c e3d4 363d ef87 323d
000002c0: 7edf f93c 60a8 ba3a 6271 fdbc eb27 0f3d
000002d0: a439 37bc 40f2 6cbb eace 1dbd 6cbb 10bc
000002e0: ca4b ecbc f152 283d a15c 1ebd dec8 0ebd
000002f0: c00a c7ba 5918 c6bc 4216 833c 3505 8dbc
00000300: d212 acbc 40ff 253b 499a 043d 2cda 00bd
00000310: 320b ac3c f65c eb3c 552f 333d 6236 00bd
00000320: c474 313c 7f72 07bd 8b63 1c3d c31c 8ebc
00000330: 26ad dc3c 0083 ae3a 6043 64bb e008 bbba
00000340: 681d f93b 0eb3 ac3c 8006 eb3b ac84 5f3c
00000350: 15c6 24bd d973 053d f7b4 1f3d a56a 173d
00000360: eb68 073d 0030 04bd 06cf 87bc 6783 213d
00000370: 0685 0bbd 012f 263d bf11 10bd 5b08 01bd
00000380: a61a b33c a59c 03bd 90dd 27bc d142 053d
00000390: 0318 113d 073e 2d3d 3cae 14bc ac60 0ebd
000003a0: 195c 343d 6016 1cbc 78bb 96bc e09d 323c
000003b0: f219 00bd aacc f03c b29b e53c 4f59 11bd
000003c0: 3a75 16bd c85d 80bb 22e1 993c a0c4 a9ba
000003d0: 89c5 b9bc 6003 863a f12c 2cbd ac76 01bd
000003e0: 56e1 f3bc 6bda 163d 1d79 213d fce0 78bc
000003f0: 3073 033b 2663 a33c 8095 af3b 5474 b7bc

encoder_z.fc_layers.0.bias f4 [128]
0.0013822429 0.0027482174 -0.0022833534 -0.0061701126 0.016146902 0.0086761005 -0.019424217 0.012960188
-0.018827742 -0.026045447 -0.032376446 -0.016026322 -0.036937907 -0.016812056 -0.010471776 0.0020362027
-0.03927196 -0.027657485 0.035982933 0.018510606 0.036398757 0.043273058 0.032235358 -0.022431761
0.030395214 0.01563691 0.004672557 0.009248462 -0.004296709 0.030853715 -0.038050175 0.027318563
-0.01908252 0.0027009957 -0.003988564 0.025105868 0.020423938 -0.02632267 0.043724153 -0.02467633
-0.03584322 0.019025873 0.03822268 0.041066904 -0.025843134 -0.0170983 -0.04062344 0.043639828
0.02494869 0.0115798 -0.02374232 -0.043224685 -0.009675328 -0.008846771 -0.013872763 -0.020037636
0.0077531897 0.030336488 -0.00447968 -0.026963288 0.005111821 -0.00050010905 0.018916454 -0.043640397
0.0306088 -0.01890644 0.024757575 -0.006628208 0.034819756 0.027548786 0.043182667 0.018048245
-0.044010386 -0.01577532 0.0040763915 -0.03134985 0.024522778 -0.016689274 0.017189968 -0.019531406
0.0031974353 -0.008270085 0.041502405 -0.015443953 0.022776645 -0.03865572 -0.040713508 -0.02071592
0.029387567 0.040889952 0.02534267 -0.015646609 0.002297487 0.0044499747 -0.020196687 0.007230915
-0.028060546 0.003127329 -0.033228975 -0.021363335 -0.0009973086 -0.032265317 0.033737462 -0.024905259
-0.042270496 -0.03475228 -0.005548734 -0.026975427 -0.016643984 0.004931014 0.024254497 -0.030314973
-0.009283174 -0.03537251 0.03523202 -0.011572648 0.024030339 -0.04204682 -0.011102986 0.044099625
0.034837607 0.029613834 0.0023251735 0.023623768 -0.038068548 0.015030485 0.02614585 -0.008545965
00000000: 602c b53a 701b 343b 50a4 15bb a82e cabb
00000010: 8246 843c 3426 0e3c 891f 9fbc f856 543c
00000020: a33c 9abc 435d d5bc 2a9d 04bd a249 83bc
00000030: 344c 17bd 70b9 89bc d091 2bbc d071 053b
00000040: a2db 20bd f391 e2bc d762 133d 8ea3 973c
00000050: dd16 153d 173f 313d 3909 043d d0c2 b7bc
00000060: 62ff f83c fa18 803c 401c 993b dc86 173c
00000070: 68cb 8cbb eec0 fc3c 80da 1bbd 2ecb df3c
00000080: f252 9cbc 3003 313b 80b2 82bb d2aa cd3c
00000090: 1a50 a73c a4a2 d7bc 1918 333d 0426 cabc
000000a0: 57d0 12bd 26dc 9b3c 638f 1c3d c535 283d
000000b0: fbb4 d3bc bc11 8cbc c464 26bd adbf 323d
000000c0: 3261 cc3c 34b9 3d3c 417f c2bc 5e0c 31bd
000000d0: 4485 1ebc 0cf2 10bc 964a 63bc f825 a4bc
000000e0: 780e fe3b 3a84 f83c 48ca 92bb 1de2 dcbc
000000f0: 1081 a73b c019 03ba aef6 9a3c 46c0 32bd
00000100: 4ebf fa3c aee1 9abc 66d0 ca3c 7031 d9bb
00000110: 299f 0e3d fead e13c 4fe0 303d ead9 933c
00000120: 3c44 34bd 3e3b 81bc 4093 853b b368 00bd
00000130: fee3 c83c f2b7 88bc fad1 8c3c 5400 a0bc
00000140: 108c 513b 407f 07bc 6dfe 293d a208 7dbc
00000150: 1696 ba3c 7655 1ebd 35c3 26bd 6fb4 a9bc
00000160: 32be f03c 397c 273d 6e9b cf3c 512d 80bc
00000170: 7091 163b 18d1 913b 8673 a5bc 50f1 ec3b
00000180: 3bdf e5bc e0f3 4c3b 1b1b 08bd 2902 afbc
00000190: 20b8 82ba a328 04bd 4b30 0a3d 1d06 ccbc
000001a0: d423 2dbd 6858 0ebd 28d2 b5bb 92fb dcbc
000001b0: f758 88bc 5894 a13b 5eb1 c63c 1b57 f8bc
000001c0: 7418 18bc c4e2 10bd 734f 103d 349b 3dbc
000001d0: 46db c43c 4939 2cbd 4ce9 35bc cfa1 343d
000001e0: e1b1 0e3d b698 f23c f061 183b a286 c13c
000001f0: c4ed 1bbd 6c42 763c d22f d63c 6004 0cbc

encoder_z.fc_layers.2.weight f4 [128, 128]
0.08284784 0.0068878382 -0.025475658 -0.062130257 -0.011324465 0.059216283 0.008789979 -0.057577126
-0.018381663 0.08714246 -0.062683225 -0.0798136 -0.047611598 -0.03512417 -0.033590302 0.010325216
0.07607835 -0.0042130277 0.017579906 -0.011176489 0.038844608 -0.017141737 -0.025235236 0.01949022
0.047125794 0.053760223 0.073487826 0.015431225 -0.05569194 0.029196322 -0.067166 0.007515408
-0.030822705 -0.038278148 -0.082440436 -0.020253047 -0.07843631 -0.05071235 -0.05415955 0.05164007
-0.02824375 -0.029938824 -0.032276183 0.057111166 0.023503907 0.046226688 0.07506298 -0.017463692
-0.051668916 0.0836649 -0.08730159 0.044904806 0.08116803 0.07292994 -0.026313584 -0.0025989562
0.056128927 0.086824425 -0.047973122 0.0047233254 0.08032086 0.010628 0.07385402 -0.07607746
0.009992711 -0.024247482 0.009516887 0.012877844 -0.026587464 0.0724173 0.016920716 -0.066705465
0.056768857 0.043562062 0.043687426 0.0026263148 -0.038428135 -0.0040001497 0.041760735 0.013200857
0.065048136 -0.044928465 0.06288884 -0.048388153 0.05677905 0.011725411 0.008290678 0.07057648
-0.05318374 0.011387214 -0.048180107 -0.07796836 0.08206385 0.014762431 0.044737093 -0.008775525
0.05300816 -0.06449564 0.037896283 0.019842237 -0.056098033 0.06652049 -0.070900336 -0.037820842
-0.064958766 -0.045311097 0.01184766 -0.054090697 -0.01994846 0.07705813 -0.05357014 -0.04458359
-0.06233247 0.05579511 -0.072380885 -0.07536667 -0.06321341 0.072767265 -0.03080495 0.0011097863
-0.029326744 -0.087224394 0.07942807 -0.03738811 0.08467864 -0.040275402 0.07880344 -0.03081492
0.011393115 0.05043312 0.036613487 -0.082204506 0.037296332 -0.055850696 0.042758398 -0.013888009
0.012798712 -0.08006952 0.026532948 0.06697253 -0.06065868 0.040798493 0.048864312 -0.023844667
0.011634782 0.06726783 -0.052835036 0.010436244 -0.06600821 -0.08302052 0.041800864 -0.017041847
0.042623945 0.06948296 -0.011275202 -0.010841057 0.045131676 0.06282001 -0.0061405227 0.00060672313
-0.0025907233 0.073797576 0.04143078 -0.030897245 -0.021590099 -0.04627214 -0.042402066 -0.040422272
0.058400206 0.056533597 -0.04245003 0.006068222 0.08059498 0.0011120662 0.06138199 0.065025456
-0.0682515 -0.039171997 -0.05692346 0.016497664 0.07805955 0.05091784 0.073147304 -0.081846505
-0.066600576 -0.024650112 0.015005186 -0.058296867 0.08507729 -0.041880343 -0.08452924 0.06025382
-0.0074273795 0.059062473 0.06610913 -0.028523754 0.08554115 -0.0016715974 0.07205785 0.0073093995
0.007447794 0.024272889 -0.067578316 -0.0036969334 0.012752064 -0.019676678 -0.07458179 -0.047431115
0.073259614 0.013965756 0.0013427138 0.056416027 -0.05278508 0.015958987 0.082198 -0.045137767
0.012126029 -0.041522946 -0.05272694 -0.0680064 0.07857209 -0.044240754 -0.08400222 -0.030004319
-0.003525339 -0.012137987 -0.025177002 0.007152289 -0.055562876 0.036645256 0.009450242 -0.02323956
0.05035434 0.0693805 0.08165126 0.019637577 -0.08472198 0.08587734 -0.010341898 0.071495675
0.0076815933 0.04658351 -0.07113338 -0.030391574 0.060523726 0.022151843 -0.07350094 -0.062192522
-0.027352799 0.07842823 0.023175761 0.08664439 -0.05181822 -0.054084152 0.024014093 0.028643802
00000000: 21ac a93d 60b3 e13b 54b2 d0bc 4c7c 7ebd
00000010: 408a 39bc c68c 723d d803 103c fed5 6bbd
00000020: 2495 96bc bf77 b23d 1060 80bd 5075 a3bd
00000030: 6104 43bd 5dde 0fbd fc95 09bd 182b 293c
00000040: f7ce 9b3d 700d 8abb bc03 903c 981d 37bc
00000050: 861b 1f3d d46c 8cbc 20ba cebc f4a9 9f3c
00000060: fa06 413d ae33 5c3d c980 963d 40d3 7c3c
00000070: 3b1d 64bd 202d ef3c 548e 89bd d043 f63b
00000080: e67f fcbc 8cc9 1cbd 88d6 a8bd b8e9 a5bc
00000090: 37a3 a0bd c1b7 4fbd 68d6 5dbd 8a84 533d
000000a0: 705f e7bc 4442 f5bc 0834 04bd 66ed 693d
000000b0: 448b c03c 3258 3d3d 9fba 993d 0410 8fbc
000000c0: c9a2 53bd 8158 ab3d 2dcb b2bd 1aee 373d
000000d0: 6d3b a63d 4b5c 953d 968f d7bc 4053 2abb
000000e0: 72e7 653d 01d1 b13d 777f 44bd 20c6 9a3b
000000f0: 437f a43d 1021 2e3c c740 973d 80ce 9bbd
00000100: 78b8 233c a8a2 c6bc b8ec 1b3c 98fd 523c
00000110: f4cd d9bc 854f 943d 509d 8a3c e09c 88bd
00000120: 7686 683d 226e 323d 96f1 323d 401e 2c3b
00000130: d266 1dbd b013 83bb 4e0d 2b3d 6848 583c
00000140: f537 853d e906 38bd ddcb 803d a832 46bd
00000150: 2691 683d f01b 403c a0d5 073c 678a 903d
00000160: 31d7 59bd 7091 3a3c 8158 45bd e0ad 9fbd
00000170: 1711 a83d 20de 713c 3e3e 373d 38c7 0fbc
00000180: 161f 593d 4a16 84bd 2239 1b3d 308c a23c
00000190: 0dc7 65bd e53b 883d 3234 91bd 07ea 1abd
000001a0: 1a09 85bd 2198 39bd b01c 423c 358e 5dbd
000001b0: f46a a3bc a7d0 9d3d 5d6c 5bbd 489d 36bd
000001c0: 5550 7fbd 6a89 643d 6e3c 94bd d759 9abd
000001d0: 0876 81bd 0107 953d aa5a fcbc 4076 913a
000001e0: a43e f0bc b4a2 b2bd 2fab a23d 4624 19bd
000001f0: ff6b ad3d d2f7 24bd b363 a13d 926f fcbc
00000200: 30aa 3a3c f692 4e3d 06f8 153d d65a a8bd
00000210: 0ac4 183d b3c3 64bd 6e23 2f3d 888a 63bc
00000220: b0b1 513c 7dfb a3bd a05b d93c e528 893d
00000230: 3c75 78bd 521c 273d f225 483d e455 c3bc
00000240: d09f 3e3c b7c3 893d 8d69 58bd c8fc 2a3c
00000250: 502f 87bd aa06 aabd 6237 2b3d 589b 8bbc
00000260: 7296 2e3d 154d 8e3d a0bb 38bc b09e 31bc
00000270: fedb 383d c7a7 803d 7036 c9bb 800c 1f3a
00000280: 20c9 29bb 2f23 973d 52b3 293d 381c fdbc
00000290: b8dd b0bc db87 3dbd caad 2dbd d391 25bd
000002a0: 0e35 6f3d c68f 673d 15e0 2dbd f0d7 c63b
000002b0: fb0e a53d c0c2 913a ae6b 7b3d 112c 853d
000002c0: 71c7 8bbd d172 20bd 9328 69bd 1c26 873c
000002d0: afdd 9f3d 3a8f 503d 41ce 953d 249f a7bd
000002e0: e265 88bd 08ef c9bc 50d8 753c b2c8 6ebd
000002f0: 013d ae3d b98a 2bbd ab1d adbd b6cc 763d
00000300: 6061 f3bb 7eeb 713d 3964 873d a6aa e9bc
00000310: 3330 af3d 8019 dbba 1193 933d b083 ef3b
00000320: a00c f43b f0d7 c63c 8066 8abd 4048 72bb
00000330: 08ee 503c fc30 a1bc 56be 98bd 2147 42bd
00000340: 2309 963d a0d0 643c 00fe af3a 7e14 673d
00000350: 2b35 58bd 6cbc 823c 6d57 a83d 61e2 38bd
00000360: 40ac 463c f713 2abd 34f8 57bd f046 8bbd
00000370: 67ea a03d cb35 35bd 5b09 acbd 9ecb f5bc
00000380: 6009 67bb 68de 46bc 0040 cebc c05d ea3b
00000390: e695 63bd 5619 163d 30d5 1a3c e460 bebc
000003a0: 5a40 4e3d 5d17 8e3d c738 a73d fcde a03c
000003b0: b882 adbd 75e0 af3d 1071 29bc 536c 923d
000003c0: e0b5 fb3b 5ace 3e3d 61ae 91bd c0f7 f8bc
000003d0: bae7 773d c877 b53c a987 96bd 96bd 7ebd
000003e0: fa12 e0bc fb9e a03d 18db bd3c 9d72 b13d
000003f0: 583f 54bd 5887 5dbd 34b9 c43c 68a6 ea3c

encoder_z.fc_layers.2.bias f4 [128]
-0.004601434 -0.020230062 0.061707295 0.043499775 0.024632946 0.018821657 -0.06833465 -0.087175064
0.07958085 -0.053792905 -0.013550803 -0.030755892 -0.07347342 -0.0680729 0.024670228 0.0030748844
-0.032706145 7.865578e-05 -0.06629695 0.010292642 -0.065499954 -0.08037683 0.01551006 0.00981909
0.049978994 0.084510274 -0.053297903 -0.06363654 0.03995707 0.068159886 -0.056214485 0.008019038
0.03293927 -0.084421135 -0.0081328 -0.023286752 -0.0025682822 0.012078285 -0.0623849 -0.052145977
-0.047723677 -0.04485808 -0.039295383 0.06269831 0.05031804 -0.058454104 0.0333893 -0.030649547
0.01650966 -0.062372983 0.031909063 -0.04264394 0.0241061 0.063894205 -0.026508272 -0.083079696
0.010212794 -0.05625947 0.0010154024 0.04430882 0.05155053 -0.08835772 0.06178195 -0.02799718
0.08316783 0.08423605 0.055705823 -0.052447833 0.00962124 0.069245495 -0.07765738 0.08352337
0.0274062 -0.071270056 0.029815912 0.039381377 -0.029664941 -0.062092338 0.044494368 -0.047180995
-0.060939245 0.061105527 -0.031459965 0.06369535 -0.0041194335 0.011003941 0.058718584 -0.0022782683
-0.061692335 0.02906473 -0.06501254 -0.057848647 0.012236401 0.0036699027 -0.017528735 0.08652317
-0.08154844 0.03462787 0.057550557 -0.0106020495 -0.008006446 0.0018741935 -0.015116945 -0.05295682
-0.035889506 0.06141313 0.001776278 0.020511985 0.071725614 0.0015162751 0.032988526 -0.0851179
-0.07371199 -0.05738328 -0.047408197 -0.06268347 -0.032675713 -0.022319198 0.08290795 0.04558911
0.043479554 0.0073995516 0.044210248 -0.054251414 -0.03524032 0.08326242 -0.02117858 -0.08114898
00000000: a0c7 96bb 84b9 a5bc cac0 7c3d d22c 323d
00000010: 08cb c93c e02f 9a3c 09f3 8bbd d788 b2bd
00000020: 49fb a23d f355 5cbd 3004 5ebc c8f3 fbbc
00000030: 3c79 96bd ce69 8bbd 3819 ca3c 0084 493b
00000040: e1f6 05bd 00f4 a438 b2c6 87bd 78a2 283c
00000050: d724 86bd 9c9c a4bd e81d 7e3c 40e0 203c
00000060: c6b6 4c3d b913 ad3d e74e 5abd e053 82bd
00000070: 06aa 233d 6997 8b3d 2941 66bd 4862 033c
00000080: 54eb 063d fde4 acbd 703f 05bc dcc3 bebc
00000090: a050 28bb 00e4 453c 4f87 7fbd 0597 55bd
000000a0: e779 43bd 1bbd 37bd 32f4 20bd f967 803d
000000b0: 4a1a 4e3d 926d 6fbd 38c3 083d c214 fbbc
000000c0: 443f 873c d07a 7fbd 14b3 023d 69ab 2ebd
000000d0: 287a c53c f7da 823d e027 d9bc b025 aabd
000000e0: 9053 273c 5470 66bd 4017 853a 2a7d 353d
000000f0: a626 533d e4f4 b4bd 120f 7d3d 585a e5bc
00000100: e553 aa3d f383 ac3d ca2b 643d 8ad3 56bd
00000110: 68a2 1d3c 95d0 8d3d d50a 9fbd 4d0e ab3d
00000120: f882 e03c 09f6 91bd 8040 f43c 5e4e 213d
00000130: e403 f3bc 8954 7ebd ba3f 363d dc40 41bd
00000140: 6e9b 79bd ca49 7a3d 2adc 00bd b572 823d
00000150: 50fc 86bb e049 343c e682 703d 004f 15bb
00000160: 1ab1 7cbd 2819 ee3c 4b25 85bd b4f2 6cbd
00000170: 307b 483c c082 703b 6c98 8fbc 0f33 b13d
00000180: de02 a7bd f4d5 0d3d 22ba 6b3d 38b4 2dbc
00000190: 782d 03bc 80a7 f53a 10ad 77bc 40e9 58bd
000001a0: e000 13bd 568c 7b3d 00d2 e83a c008 a83c
000001b0: e1e4 923d c0bd c63a fa1e 073d 4b52 aebd
000001c0: 50f6 96bd bb0a 6bbd 192f 42bd 3160 80bd
000001d0: f8d6 05bd c0d6 b6bc a5cb a93d a6bb 3a3d
000001e0: 9e17 323d f077 f23b ce15 353d bb36 5ebd
000001f0: 2758 10bd 7d85 aa3d b47e adbc 7031 a6bd

encoder_z.fc11.weight f4 [3, 128]
0.018767662 0.025068514 -0.016160063 0.0033001527 0.051142596 -0.081293546 -0.040646084 0.04025168
-0.046167508 0.0750703 -0.016624346 0.029674016 0.08513435 -0.03978772 -0.08474269 -0.069587514
-0.010442279 0.04524658 -0.004705481 -0.012889676 0.0604671 -0.06224805 0.074491955 0.05366143
0.03913007 0.06813445 0.06396375 -0.0780385 0.08504213 -0.044635482 0.047378115 -0.07055164
-0.014467716 0.03710585 -0.08395141 -0.044740163 0.05445508 -0.07352584 -0.025366478 -0.02266229
-0.03995934 0.03235481 0.0071971416 0.045580186 -0.019845992 0.012533322 0.06499938 0.042113535
0.06149053 -0.034233958 0.007053487 -0.020614617 0.04864321 -0.06690255 0.01754094 -0.034157936
0.08397532 -0.03822282 0.080814816 -0.004654929 -0.082853094 -0.009723321 -0.047604065 0.07578129
0.021251343 0.07836365 0.009170398 0.06161312 0.015889056 0.032148458 0.00072683394 0.085262455
0.044887044 -0.011340991 0.06338998 0.04260028 -0.058929723 0.081105925 0.02575595 0.06180387
0.0823909 0.06086678 0.039636858 -0.07441888 -0.07077803 -0.07573229 -0.062156696 -0.07080106
-0.078390725 0.044379897 -0.038224462 0.06523637 0.08597874 0.072511025 -0.03321235 -0.02057352
-0.06386183 0.034400962 -0.055129174 -0.05504195 -0.08339088 -0.0032008663 -0.025335774 -0.061748598
-0.04460506 -0.0039933473 -0.060785525 -0.025318801 0.06549651 -0.06445833 0.02677191 -0.0058984905
0.013664104 0.059182145 -0.051814124 0.0602253 0.008706339 -0.05343294 0.068255894 0.041125007
-0.061584175 -0.08014757 0.08338945 -0.009186871 -0.014043637 0.06250868 0.052618615 0.0042805895
-0.020482838 -0.0013927147 -0.042386726 -0.020920105 0.025050439 -0.03308164 0.06336986 -0.023224376
0.014472775 0.07226392 -0.005263835 -0.036986947 0.020856135 -0.08793229 -0.022932522 -0.046683725
0.04255169 0.0188488 -0.047657557 0.07069894 -0.0058142096 -0.013407014 -0.08474061 0.03489794
0.024519384 -0.045217287 0.066625215 0.018851273 0.035915002 -0.08131307 -0.013518013 -0.07463735
-0.037487913 -0.028668474 -0.027064126 -0.056767367 0.07027545 -0.022866085 -0.033724096 0.029303133
0.014254309 -0.017512992 0.019901343 -0.049556285 -0.06584041 0.016710617 -0.03751388 -0.075542316
0.060627036 -0.04243432 -0.066867985 -0.046659354 -0.077342205 -0.079367615 -0.07510031 0.044518568
0.00042904168 -0.05753544 -0.010111377 -0.047342636 -0.075351514 -0.008179851 -0.004505463 -0.010768697
-0.053488333 -0.023586094 -0.06340774 -0.08088878 0.082875766 0.028439425 -0.0032016784 0.01999724
0.0431725 0.03737534 0.07565499 0.068256386 0.016987994 -0.020714551 0.0044653937 -0.07381018
-0.0010430738 -0.083615616 -0.025801286 -0.0170042 0.08727232 -0.028106406 0.027428694 0.011622541
0.027565315 -0.048258584 -0.004212685 0.0840741 0.08268551 -0.011604674 -0.0067110285 0.07463283
0.05434393 -0.013605982 -0.014579132 -0.068647206 0.019460209 0.083425574 -0.019708738 0.06964178
-0.08742159 0.07411488 -0.07314776 -0.043185137 -0.027292147 -0.056903966 0.055932485 -0.08287149
-0.017344967 0.03686901 0.08831147 -0.049621034 -0.07419151 -0.05263114 -0.08184357 0.014635459
0.010908954 -0.049771436 0.007265955 0.013590306 0.07693776 -0.06250086 0.08685572 -0.036879934
00000000: a4be 993c 7c5c cd3c 1c62 84bc 6047 583b
00000010: e67a 513d 3b7d a6bd 827c 26bd f2de 243d
00000020: 241a 3dbd 75be 993d c82f 88bc ec16 f33c
00000030: eb5a ae3d 73f8 22bd 938d adbd e683 8ebd
00000040: 1816 2bbc 7a54 393d 7030 9abb 382f 53bc
00000050: 5aac 773d d0f7 7ebd 3d8f 983d 16cc 5b3d
00000060: da46 203d 138a 8b3d 6dff 823d a6d2 9fbd
00000070: 912a ae3d b2d3 36bd 8e0f 423d 617d 90bd
00000080: 000a 6dbc 4efc 173d b8ee abbd 7641 37bd
00000090: 4a0c 5f3d b794 96bd 5ccd cfbc 44a6 b9bc
000000a0: 68ac 23bd 7a86 043d 00d6 eb3b 4ab2 3a3d
000000b0: 1094 a2bc 9058 4d3c 651e 853d 3e7f 2c3d
000000c0: 7edd 7b3d e838 0cbd f020 e73b fcdf a8bc
000000d0: 1a3e 473d 3404 89bd 04b2 8f3c 31e9 0bbd
000000e0: 41fb ab3d 888f 1cbd 3d82 a53d 6088 98bb
000000f0: e2ae a9bd 904e 1fbc 7bfc 42bd 3933 9b3d
00000100: 4c17 ae3c 1f7d a03d 703f 163c 0a5e 7c3d
00000110: c429 823c 1aae 033d 0089 3e3a 159e ae3d
00000120: 7adb 373d 90cf 39bc 9bd2 813d a27d 2e3d
00000130: 4b60 71bd dd1a a63d 24fe d23c 0e26 7d3d
00000140: 8fbc a83d 724f 793d 425a 223d ed68 98bd
00000150: 12f4 90bd 8819 9bbd 0598 7ebd 2500 91bd
00000160: 518b a0bd b2c7 353d 4191 1cbd a59a 853d
00000170: 9f15 b03d a980 943d ac09 08bd cc89 a8bc
00000180: fec9 82bd 06e8 0c3d 21cf 61bd ab73 61bd
00000190: d6c8 aabd a0c5 51bb f88c cfbc 19ec 7cbd
000001a0: ccb3 36bd a0da 82bb 3efa 78bd 6069 cfbc
000001b0: 0923 863d bb02 84bd c450 db3c 2048 c1bb
000001c0: 68df 5f3c fa68 723d 0c3b 54bd ceae 763d
000001d0: 08a5 0e3c 80dc 5abd bfc9 8b3d b272 283d
000001e0: b03f 7cbd 6924 a4bd 17c8 aa3d 8884 16bc
000001f0: 4817 66bc 8d04 803d 9e86 573d 3044 8c3b
00000200: a0cb a7bc c08b b6ba b49d 2dbd a460 abbc
00000210: 9436 cd3c 9d80 07bd 0fc8 813d 0c41 bebc
00000220: 381f 6d3c 1bff 933d 407c acbb a07f 17bd
00000230: 7cda aa3c d815 b4bd fcdc bbbc 6f37 3fbd
00000240: ae4a 2e3d cc68 9a3c 9234 43bd 9bca 903d
00000250: 2085 bebb 18a9 5bbc 7c8c adbd 24f1 0e3d
00000260: e0dc c83c c335 39bd cd72 883d fc6d 9a3c
00000270: 9c1b 133d 7887 a6bd a87a 5dbc 78db 98bd
00000280: ed8c 19bd 26da eabc 96b5 ddbc e684 68bd
00000290: 93ec 8f3d a851 bbbc 4722 0abd 200d f03c
000002a0: e88a 693c 6877 8fbc 2408 a33c 88fb 4abd
000002b0: 56d7 86bd b4e4 883c 27a8 19bd eeb5 9abd
000002c0: 0e54 783d 9ccf 2dbd 15f2 88bd e11d 3fbd
000002d0: 9765 9ebd 7d8b a2bd 31ce 99bd 1a59 363d
000002e0: 00f1 e039 48aa 6bbd 30aa 25bc 5aea 41bd
000002f0: e551 9abd c804 06bc 90a2 93bb 306f 30bc
00000300: 9516 5bbd a037 c1bc ebdb 81bd 04a9 a5bd
00000310: c5ba a93d ccf9 e83c 40d3 51bb 40d1 a33c
00000320: a6d5 303d e216 193d 01f1 9a3d 01ca 8b3d
00000330: 682a 8b3c 90b1 a9bc 7052 923b cb29 97bd
00000340: c0b7 88ba aa3e abbd 385d d3bc 644c 8bbc
00000350: d5bb b23d 683f e6bc 24b2 e03c 786c 3e3c
00000360: a8d0 e13c cbaa 45bd 900a 8abb 0b2f ac3d
00000370: 0557 a93d 8821 3ebc 30e8 dbbb 19d9 983d
00000380: be97 5e3d a0eb 5ebc 50dd 6ebc e896 8cbd
00000390: 046b 9f3c 07db aa3d 3874 a1bc 59a0 8e3d
000003a0: 170a b3bd 8bc9 973d 7ece 95bd e6e2 30bd
000003b0: c893 dfbc 2214 69bd 7619 653d 87b8 a9bd
000003c0: 0817 8ebc f603 173d a5dc b43d 6d3f 4bbd
000003d0: b8f1 97bd c093 57bd 9a9d a7bd 90c9 6f3c
000003e0: 78bb 323c 22dd 4bbd 4017 ee3b e0a9 5e3c
000003f0: 8b91 9d3d 7300 80bd 69e1 b13d 6a0f 17bd

encoder_z.fc11.bias f4 [3]
0.025475442 -0.0612081 -0.012635961
00000000: e0b1 d03c 58b5 7abd 1007 4fbc

encoder_z.fc12.weight f4 [3, 128]
-0.008490875 -0.013761282 -0.042406853 0.055648245 -0.0058389157 -0.051384173 0.007831998 0.013796978
-0.044659737 0.029059686 -0.0111499205 0.023834035 -0.049059153 -0.013842322 -0.0022031665 -0.029231168
0.04748737 -0.07420078 -0.04414538 -0.019561596 -0.02779967 0.062471516 0.06887824 0.04121294
-0.004037857 0.080287345 -0.04107082 -0.036725678 -0.07602567 -0.067511946 -0.042393923 0.0011581555
-0.08147764 -0.029937401 0.08780929 -0.0018296167 -0.009050593 0.07500892 0.07189948 0.012146838
-0.025821455 0.07827269 0.086906396 0.067586474 -0.049180735 0.049659573 0.079285674 -0.07196846
-0.06755967 0.029032148 0.049891345 -0.07631947 0.03545776 0.055937715 -0.06875135 0.0034004524
0.054202296 0.06714172 -0.0686035 0.024175517 -0.03122009 0.032106265 -0.07829408 0.07881021
0.012965098 0.016722627 -0.0029528365 0.00364317 0.08612984 -0.07782003 0.05989171 -0.0027574673
0.056929134 -0.041343477 0.038515396 0.046177946 -0.04888502 0.06643144 0.0065503046 -0.004237823
0.08190671 -0.07290492 -0.022024624 -0.009811662 0.08444164 -0.054480787 -0.06274203 0.08537006
-0.044545226 -0.0067037493 -0.037116602 -0.07529817 0.015150242 -0.045068342 0.013401024 -0.046146784
0.06009852 0.087877594 0.04601931 -0.067810245 0.0006522536 0.070572175 -0.07515187 0.045027234
-0.0813094 0.0046795458 -0.037551135 -0.07959811 0.05349832 0.001486972 -0.015509881 0.04491452
0.005009234 0.03151851 0.051295124 -0.057301074 0.06332182 -0.01711087 -0.08598182 -0.04869684
-0.087259725 0.036971934 0.023846582 0.03685441 0.08043862 0.02801656 -0.006824225 -0.04164157
0.07284243 -0.040436298 0.0149306655 -0.07464382 -0.06715708 -0.014886856 -0.086230114 -0.039322536
-0.036022794 -0.073074296 -0.06541637 -0.0608567 -0.07826466 0.05321414 -0.06819536 -0.0045252442
-0.048241768 -0.06147888 -0.04738566 0.019410498 0.05368655 -0.012862921 -0.04905414 -0.08737915
-0.083915405 -0.048846267 0.015938155 -0.010514513 -0.029839978 -0.017381087 -0.052139245 -0.029626936
-0.044420797 0.031445608 0.016725153 -0.028110862 0.050502516 0.010462657 0.014143869 -0.01789862
0.08151715 -0.017516114 0.012695476 -0.064339235 -0.004198119 0.08580003 -0.07531076 -0.011236317
0.026999742 0.07902541 -0.07886275 -0.05977702 -0.057289146 -0.044959065 -0.0606033 -0.04568574
-0.06994201 -0.06662217 0.011910856 -0.041440763 -0.020725377 0.06766602 0.048356093 0.0071090534
0.07181991 -0.05156612 -0.07516289 -0.053378087 0.021406457 0.06936308 0.08650064 0.04854586
-0.032222044 0.07489023 -0.045438044 0.056521125 -0.08020689 -0.073979795 -0.05507217 -0.033067122
0.05737277 -0.053101372 -0.07249437 0.05853065 -0.012759075 -0.08780646 0.05229313 -0.050911676
0.04987251 0.04049655 -0.00760331 -0.015749246 -0.039852627 -0.08149794 0.010527752 0.048002444
0.085211106 0.066387005 0.060620524 0.018162698 0.0012552589 0.06190183 0.07976607 -0.036083832
-0.0025977418 0.06847843 0.019300655 -0.007344365 0.016207896 0.066808395 -0.019378275 -0.0071175694
0.06955851 0.029973418 -0.00075349957 0.08101239 0.004084915 0.001712963 0.050340272 -0.06410745
0.012113549 0.050139897 0.015034981 0.004426144 0.032356434 -0.071841545 0.007013552 -0.016056463
00000000: 501d 0bbc 0077 61bc cfb2 2dbd 6aef 633d
00000010: 6054 bfbb 3678 52bd c851 003c b80c 623c
00000020: 21ed 36bd 940e ee3c 28ae 36bc 983f c33c
00000030: 40f2 48bd e8ca 62bc 0063 10bb 3476 efbc
00000040: 1e82 423d 94f6 97bd c9d1 34bd a43f a0bc
00000050: 22bc e3bc 22e2 7f3d 0910 8d3d e6ce 283d
00000060: 0050 84bb b16d a43d e039 28bd aa6d 16bd
00000070: 59b3 9bbd b443 8abd 40a5 2dbd 40cd 973a
00000080: c0dd a6bd 483f f5bc 5bd5 b33d c0cf efba
00000090: f048 14bc 479e 993d 0940 933d 8803 473c
000000a0: 8487 d3bc 6f4d a03d fbfb b13d c76a 8a3d
000000b0: bd71 49bd d667 4b3d 8760 a23d 3364 93bd
000000c0: b95c 8abd d4d4 ed3c de5a 4c3d 624d 9cbd
000000d0: 283c 113d f21e 653d 82cd 8cbd 20da 5e3b
000000e0: 3a03 5e3d 9981 893d fe7f 8cbd bc0b c63c
000000f0: 46c1 ffbc dc81 033d a658 a0bd 3f67 a13d
00000100: 906b 543c e4fd 883c 6084 41bb 40c2 6e3b
00000110: d764 b03d 1c60 9fbd 0251 753d a0b6 34bb
00000120: 862e 693d c757 29bd 52c2 1d3d 1625 3d3d
00000130: a93b 48bd 350d 883d f0a3 d63b 70dd 8abb
00000140: b5be a73d 2d4f 95bd fc6c b4bc 18c1 20bc
00000150: bdef ac3d 3f27 5fbd e57e 80bd 7fd6 ae3d
00000160: 0e75 36bd 20ab dbbb 9407 18bd ed35 9abd
00000170: b838 783c 9599 38bd f88f 5b3c 6904 3dbd
00000180: de29 763d 2bf9 b33d be7e 3c3d 19e0 8abd
00000190: 00fc 2a3a 2588 903d 39e9 99bd 7a6e 383d
000001a0: 8b85 a6bd e056 993b 38cf 19bd 5504 a3bd
000001b0: 0e21 5b3d 80e6 c23a 281d 7ebc 4af8 373d
000001c0: 8024 a43b 8e19 013d d61a 523d 88b4 6abd
000001d0: dfae 813d 182c 8cbc 3d17 b0bd 5676 47bd
000001e0: 3ab5 b2bd e26f 173d e859 c33c a6f4 163d
000001f0: 01bd a43d fc82 e53c c09d dfbb 5a90 2abd
00000200: 692e 953d 88a0 25bd c09f 743c dcde 98bd
00000210: a789 89bd 00e8 73bc 6a99 b0bd ab10 21bd
00000220: a38c 13bd faa7 95bd 05f9 85bd e044 79bd
00000230: 3949 a0bd 12f7 593d 02aa 8bbd 8048 94bb
00000240: 2999 45bd 47d1 7bbd 7717 42bd c402 9f3c
00000250: 6ee6 5b3d 00bf 52bc feec 48bd d7f3 b2bd
00000260: d7db abbd 0613 48bd bc90 823c 1045 2cbc
00000270: f872 f4bc c862 8ebc f68f 55bd 30b4 f2bc
00000280: 95f2 35bd 1ccd 003d 3003 893c c048 e6bc
00000290: badb 4e3d 906b 2b3c b0bb 673c 20a0 92bc
000002a0: 77f2 a63d f47d 8fbc b000 503c 4ac4 83bd
000002b0: 6090 89bb edb7 af3d 873c 9abd 8818 38bc
000002c0: 902e dd3c 13d8 a13d cb82 a1bd c0d8 74bd
000002d0: 06a8 6abd ff26 38bd 2a3b 78bd f820 3bbd
000002e0: c23d 8fbd 3471 88bd c025 433c cabd 29bd
000002f0: 44c8 a9bc 7b94 8a3d 0a11 463d 10f3 e83b
00000300: 5116 933d ff36 53bd 00ef 99bd fba2 5abd
00000310: 985c af3c 3b0e 8e3d 3f27 b13d 06d8 463d
00000320: 43fb 03bd 0d60 993d 3e1d 3abd b282 673d
00000330: 8343 a4bd b882 97bd 5b93 61bd 6471 07bd
00000340: b6ff 6a3d d380 59bd ee77 94bd d6bd 6f3d
00000350: 700b 51bc e0d3 b3bd 5231 563d c388 50bd
00000360: 1e47 4c3d b6df 253d 3025 f9bb 9004 81bc
00000370: 823c 23bd 64e8 a6bd 987c 2c3c 369e 443d
00000380: 2983 ae3d e9f5 873d 3a4d 783d f0c9 943c
00000390: 8087 a43a c68c 7d3d 655c a33d a4cc 13bd
000003a0: e03e 2abb 6b3e 8c3d 681c 9e3c 00a9 f0bb
000003b0: 6cc6 843c d7d2 883d 30bf 9ebc 803a e9bb
000003c0: b174 8e3d d08a f53c 8086 45ba d3e9 a53d
000003d0: c0da 853b 8085 e03a 9a31 4e3d c44a 83bd
000003e0: e877 463c 7e5f 4d3d 4855 763c 3009 913b
000003f0: 2e88 043d a921 93bd f0d1 e53b d888 83bc

encoder_z.fc12.bias f4 [3]
-0.06794744 -0.044717226 0.04677313
00000000: 0728 8bbd 6929 37bd 2e95 3f3d

decoder.coord_latent.fc_coord.weight f4 [128, 1]
0.5038276 0.15313935 -0.25820935 0.6287991 -0.15698075 0.37043822 -0.16154575 0.3594401
-0.9039743 -0.079858065 -0.292804 -0.13292778 -0.9696212 -0.90282845 0.94386244 -0.6051271
0.61071384 0.7974484 -0.27491307 0.87330866 0.254485 0.3736111 -0.358508 0.39912534
-0.74363554 0.40300798 -0.9583831 0.16320837 -0.29965854 -0.599859 0.07871485 0.64438677
-0.22199857 0.26323688 -0.80029607 -0.38956797 0.16358471 -0.25846815 -0.1080513 -0.20208025
-0.7397944 -0.77149475 -0.057740092 -0.2991649 -0.17081058 0.9321331 0.2857225 -0.53105927
0.29103482 0.31183982 -0.5894613 -0.22777104 -0.32633162 -0.0026701689 0.07290101 -0.60136664
-0.5562817 -0.639379 -0.7688459 0.03700769 0.06361663 0.82776463 -0.02280736 0.50185883
0.08821726 -0.9387648 0.71094954 0.16088021 0.86912 -0.86031103 0.30718017 0.81053483
-0.68901336 -0.41123807 0.15794742 -0.8497615 0.22984278 -0.47239447 -0.78958464 0.8642701
-0.8528955 0.55751705 -0.5299318 -0.6355411 -0.96562505 0.8758271 -0.5766586 0.49037814
0.18568373 0.20794201 -0.097877145 -0.9915483 0.94823754 -0.88581717 -0.47004735 -0.7583864
0.6596532 0.087516546 0.14765012 0.7711625 -0.79968786 0.977849 0.7217181 -0.82592
0.39757454 0.6868118 -0.1603167 0.5483315 0.014015555 0.8666531 0.30365455 -0.9224018
0.7061132 -0.46235907 0.55525386 -0.06674516 0.028689146 -0.3971541 -0.28347015 -0.59920895
0.38654387 0.31135643 0.64308584 -0.5011289 0.3643211 -0.3653301 -0.5366905 -0.1908505
00000000: d8fa 003f 90d0 1c3e 0434 84be faf8 203f
00000010: 90bf 20be 14aa bd3e 406c 25be 8808 b83e
00000020: dc6a 67bf a08c a3bd 68ea 95be 381e 08be
00000030: 1839 78bf c41f 67bf f8a0 713f 9ce9 1abf
00000040: be57 1c3f 9425 4c3f 68c1 8cbe 2891 5f3f
00000050: dc4b 823e f449 bf3e 5c8e b7be 285a cc3e
00000060: e65e 3ebf 1057 ce3e 9858 75bf 1820 273e
00000070: d86c 99be 5c90 19bf 4035 a13d 88f6 243f
00000080: 9853 63be fcc6 863e 34e0 4cbf 7475 c7be
00000090: c082 273e f055 84be 004a ddbd 20ee 4ebe
000000a0: 2a63 3dbf ae80 45bf e080 6cbd 242c 99be
000000b0: f8e8 2ebe 46a0 6e3f 384a 923e 80f3 07bf
000000c0: 8402 953e 78a9 9f3e f0e6 16bf d03c 69be
000000d0: f014 a7be 00fe 2ebb 204d 953d 2af3 19bf
000000e0: 7a68 0ebf 58ae 23bf 16d3 44bf 6095 173d
000000f0: 7049 823d 62e8 533f 80d6 babc d279 003f
00000100: 40ab b43d e452 70bf ca00 363f c8bd 243e
00000110: a67e 5e3f 583d 5cbf b846 9d3e 367f 4f3f
00000120: 2e63 30bf cc8d d2be f8bc 213e f889 59bf
00000130: e85b 6b3e b0dd f1be 3822 4abf ce40 5d3f
00000140: 5c57 5abf 70b9 0e3f 9ca9 07bf d2b2 22bf
00000150: 3433 77bf 3436 603f e69f 13bf d812 fb3e
00000160: e023 3e3e c0ee 543e d073 c8bd 1cd6 7dbf
00000170: b2bf 723f eac4 62bf 0caa f0be 9c25 42bf
00000180: 08df 283f e03b b33d 9831 173e e86a 453f
00000190: 58b8 4cbf 5054 7a3f 84c2 383f 7e6f 53bf
000001a0: e48e cb3e e6d2 2f3f 102a 24be 745f 0c3f
000001b0: 80a1 653c fadc 5d3f 9c78 9b3e 8622 6cbf
000001c0: d6c3 343f 54ba ecbe 1e25 0e3f b0b1 88bd
000001d0: 8005 eb3c c857 cbbe 0023 91be c265 19bf
000001e0: 14e9 c53e 1c6a 9f3e 46a1 243f fc49 00bf
000001f0: 4c88 ba3e 8c0c bbbe 8c64 09bf 506e 43be

decoder.coord_latent.fc_coord.bias f4 [128]
-0.8856504 -0.6130904 0.8804219 0.3388294 -0.27846742 -0.6935315 -0.47261238 0.106351376
-0.988008 -0.68258333 0.18308961 0.18466723 -0.34426856 -0.709074 -0.9832734 -0.08552539
-0.3840691 0.17283165 0.48173487 -0.4799714 -0.026864529 -0.43392217 0.6177857 -0.6072887
0.72861075 -0.8556577 0.73388994 -0.17197847 0.16876054 -0.72014236 -0.13996816 -0.4847486
-0.61651254 -0.6396512 0.8881115 0.8303499 0.1507119 0.3219483 -0.097176075 -0.13417244
-0.012330413 0.55205095 -0.1491059 -0.22180808 0.45035708 0.22313166 0.9185195 0.68995464
0.5196506 0.9806702 -0.0032925606 -0.71019983 0.74991536 0.19096816 0.49450028 -0.27079332
-0.027992964 0.9143386 -0.90196085 -0.8477694 0.22118044 -0.31483316 -0.18176746 -0.25466526
0.8443136 -0.46959972 0.26947415 -0.93590915 0.8705628 -0.24300408 0.9549351 -0.94804573
-0.45871866 0.50417817 -0.37003577 -0.03284824 0.1550169 0.68719316 0.2791859 0.5895102
0.1093353 0.74066985 -0.6716131 -0.18974817 -0.23853111 -0.20133841 0.29294193 0.13311744
-0.3074013 -0.15744424 -0.15571976 -0.3064326 -0.9629314 -0.26523137 0.6324574 0.9147378
0.46070278 -0.8905411 0.44025743 -0.14053822 -0.037491202 -0.0033688545 -0.5303949 -0.23424065
-0.64251804 0.692976 0.36178052 -0.44917142 -0.68202984 -0.8853352 -0.21257436 -0.89048207
0.9130329 0.56654775 -0.042534232 -0.89411795 0.60945857 0.044283867 0.72068024 -0.9166949
-0.50773215 0.37932563 -0.9063417 0.82115316 -0.04342377 0.18846667 0.57978034 0.29308093
00000000: fcb9 62bf 7ef3 1cbf 5463 613f 0c7b ad3e
00000010: 4893 8ebe 488b 31bf 40fa f1be c0ce d93d
00000020: 18ee 7cbf c8bd 2ebf d87b 3b3e 6819 3d3e
00000030: f843 b0be e085 35bf ceb7 7bbf f027 afbd
00000040: b4a4 c4be c8fa 303e f4a5 f63e d0be f5be
00000050: 0013 dcbc 0c2b debe 3427 1e3f 4677 1bbf
00000060: 3c86 3a3f 620c 5bbf 36e0 3b3f 201b 30be
00000070: 90cf 2c3e 405b 38bf d053 0fbe f830 f8be
00000080: c4d3 1dbf 2ec0 23bf 465b 633f d091 543f
00000090: 3854 1a3e 68d6 a43e 4004 c7bd 8064 09be
000000a0: 8005 4abc 3653 0d3f 38af 18be a821 63be
000000b0: 3495 e63e a07c 643e 1824 6b3f dea0 303f
000000c0: d207 053f 340d 7b3f 00c8 57bb a8cf 35bf
000000d0: 74fa 3f3f 288d 433e 242f fd3e 6ca5 8abe
000000e0: 8051 e5bc 1812 6a3f e8e6 66bf 6a07 59bf
000000f0: 207d 623e d031 a1be 4021 3abe 7c63 82be
00000100: f024 583f 606f f0be 84f8 893e be97 6fbf
00000110: 34dd 5e3f 10d6 78be a076 743f 20b3 72bf
00000120: 2cdd eabe d211 013f 5475 bdbe e08b 06bd
00000130: c0bc 1e3e e4eb 2f3f 74f1 8e3e 24ea 163f
00000140: 30eb df3d 8a9c 3d3f d6ee 2bbf 584d 42be
00000150: 8041 74be a82b 4ebe 7cfc 953e f04f 083e
00000160: b463 9dbe 1039 21be 0075 1fbe bce4 9cbe
00000170: ac82 76bf 68cc 87be bae8 213f 422c 6a3f
00000180: 3ce1 eb3e 80fa 63bf 6c69 e13e 40e9 0fbe
00000190: 6090 19bd 00c8 5cbb f6c7 07bf c8dc 6fbe
000001a0: 107c 24bf e066 313f 4c3b b93e ccf9 e5be
000001b0: 8299 2ebf 54a5 62bf 18ad 59be a2f6 63bf
000001c0: 86bc 693f 4609 113f 6038 2ebd eae4 64bf
000001d0: 7a05 1c3f 0063 353d 807e 383f 84ac 6abf
000001e0: bcfa 01bf f836 c23e 0206 68bf 1837 523f
000001f0: 20dd 31bd 68fd 403e 7c6c 143f b40e 963e

decoder.coord_latent.fc_latent.weight f4 [128, 2]
0.19507915 -0.14571011 0.1876347 0.31881946 0.1474365 0.65253466 -0.5744586 0.11459237
-0.47547805 0.061423063 -0.7053752 -0.2591849 0.394481 0.65035886 0.17212504 -0.19374937
0.039328754 -0.67082316 0.15338326 0.018305063 -0.4589013 0.70375997 0.29463416 0.06672698
-0.6436938 -0.031240523 -0.49127436 -0.28299063 0.68010587 0.186073 -0.6222934 -0.47104135
0.101364076 0.040663183 0.5136433 0.42877418 0.3017066 -0.04306692 0.109818995 -0.40485343
0.59892803 -0.14078891 0.025015473 0.15916991 0.17939645 0.38045627 0.6472189 -0.23468587
-0.22131446 0.16316748 -0.27964494 0.046933293 -0.029714763 -0.5450181 -0.011312902 -0.14661998
-0.4203638 -0.11302477 0.13211757 0.57055575 -0.3287358 -0.37996343 0.17774439 -0.1205309
-0.65935534 -0.078653276 0.24863237 0.6798871 0.1553182 -0.6715619 0.48715204 0.2934478
0.20006156 0.062677264 0.46716672 -0.056768775 -0.08946252 -0.6473963 -0.5567534 -0.6559549
0.5432263 0.32317752 -0.60160536 0.37773746 -0.59333724 0.4933719 0.49747974 -0.14581239
-0.37988505 0.46985394 -0.489546 0.7009358 -0.0003182888 -0.11424655 0.055428565 -0.2230461
-0.60341567 -0.012488604 0.09784466 -0.06829435 0.24773675 -0.5176919 0.24929869 -0.24203402
-0.37595215 -0.45365933 0.57346827 0.6063164 -0.022428453 -0.29382834 -0.6130939 0.04732603
0.44253343 -0.20338064 0.16828775 0.3849476 -0.37509498 0.51441044 0.46389395 -0.5425602
0.21564811 -0.1821698 -0.2309052 0.6391638 -0.4552137 0.6092141 -0.52792376 -0.07276559
0.5835505 -0.6390659 -0.26273105 0.5638792 -0.27681452 0.5917614 0.5290039 -0.100542665
-0.08128941 0.18176496 0.13060105 0.19051152 -0.49077323 -0.31046388 0.19128239 -0.28454915
-0.6466265 -0.24712333 0.5881234 -0.09155297 -0.62907064 -0.569997 0.52440935 0.17071521
-0.270457 -0.62112355 0.61250347 -0.17934072 0.21958256 -0.6400137 -0.4592329 0.09232408
0.024745166 -0.20739377 0.4298653 -0.3891066 0.27484053 -0.42660576 0.22625607 0.47517294
0.36241895 0.21448219 0.67556924 0.1948626 0.1744175 -0.09062642 -0.6694794 -0.53457665
0.24830931 -0.60089374 -0.2862274 0.1736911 -0.663263 -0.4001356 0.082292736 -0.621664
-0.11506468 0.49072617 0.37624258 -0.59798574 0.1974665 0.074056566 -0.47201395 0.6585633
-0.60845566 -0.038208485 -0.51163936 -0.085309744 -0.018582106 0.27640694 -0.52104133 -0.00066691637
0.6578384 -0.69445926 -0.6809103 -0.15365255 0.4449826 -0.60294217 0.5199593 -0.063455105
0.61211735 0.2085281 0.6315817 0.5675563 0.47344345 -0.5918713 -0.4060128 0.33535534
-0.36580312 -0.027893186 0.2577858 0.43402427 0.12514931 0.3073699 -0.45002726 -0.22674322
0.37290126 -0.0698514 -0.08083469 0.2030775 0.32731372 -0.24680394 0.19039339 0.67787796
0.60736173 -0.23983452 -0.3478875 -0.31301856 0.5287176 -0.045063972 0.60573786 -0.0992592
0.5970283 -0.44292325 -0.15651292 0.6927895 -0.20300055 0.20736665 0.5855568 0.2613259
-0.5527189 -0.14036727 -0.2593062 0.6058108 0.15052319 -0.58022773 0.39223105 -0.38260224
00000000: d4c2 473e 0835 15be 5023 403e 4e3c a33e
00000010: 98f9 163e 830c 273f b80f 13bf 68af ea3d
00000020: dc71 f3be c096 7b3d 7893 34bf e2b3 84be
00000030: 6af9 c93e eb7d 263f 8c41 303e 3c66 46be
00000040: 3017 213d 11bb 2bbf 8010 1d3e 80f4 953c
00000050: 1cf5 eabe 9d29 343f 4ada 963e 28a8 883d
00000060: 1ec9 24bf 20ec ffbc 5088 fbbe 26e4 90be
00000070: 6b1b 2e3f ec89 3e3e 9f4e 1fbf 552c f1be
00000080: f897 cf3d 708e 263d 217e 033f 4a88 db3e
00000090: 4a79 9a3e f066 30bd c8e8 e03d f348 cfbe
000000a0: 5953 193f f82a 10be 40ed cc3c 70fd 223e
000000b0: b4b3 373e 2acb c23e 23b0 253f 7e51 70be
000000c0: 42a0 62be 6015 273e 9f2d 8fbe 203d 403d
000000d0: 606c f3bc 4e86 0bbf c059 39bc 8c23 16be
000000e0: ed39 d7be 8879 e7bd d449 073e f10f 123f
000000f0: 0f50 a8be 918a c2be a002 363e e8d8 f6bd
00000100: 83cb 28bf f814 a1bd 7c99 7e3e 150d 2e3f
00000110: bc0b 1f3e 7beb 2bbf fe6b f93e ca3e 963e
00000120: f0dc 4c3e f05c 803d 7a30 ef3e 6086 68bd
00000130: 2038 b7bd c4bb 25bf 6487 0ebf a9ec 27bf
00000140: e110 0b3f 8677 a53e cf02 1abf ce66 c13e
00000150: f3e4 17bf 3e9b fc3e aab5 fe3e d84f 15be
00000160: 4b80 c2be b290 f03e c6a5 fabe 8770 333f
00000170: 00e0 a6b9 18fa e9bd 1009 633d 3266 64be
00000180: 7379 1abf 009d 4cbc c862 c83d e8dd 8bbd
00000190: b4ae 7d3e 7587 04bf 2848 7f3e c4d7 77be
000001a0: cd7c c0be 0946 e8be d1ce 123f 8d37 1b3f
000001b0: e0bb b7bc ab70 96be b9f3 1cbf f0d8 413d
000001c0: be93 e23e 0443 50be a053 2c3e da17 c53e
000001d0: 730c c0be 67b0 033f 8283 ed3e 3ae5 0abf
000001e0: dcd2 5c3e b88a 3abe 6a72 6cbe 3da0 233f
000001f0: c511 e9be 75f5 1b3f 0326 07bf 2006 95bd
00000200: 9163 153f d399 23bf af84 86be 635a 103f
00000210: a2ba 8dbe ad7d 173f cd6c 073f 50e9 cdbd
00000220: 107b a6bd 9820 3a3e 48bc 053e 7415 433e
00000230: a146 fbbe 1ff5 9ebe 88df 433e 6db0 91be
00000240: 5089 25bf e60d 7dbe 418f 163f 2080 bbbd
00000250: c60a 21bf 53eb 11bf b13f 063f f8cf 2e3e
00000260: 5779 8abe f401 1fbf 07cd 1c3f 18a5 37be
00000270: 40da 603e f0d7 23bf 9320 ebbe 6814 bd3d
00000280: 60b6 ca3c 085f 54be 4e17 dc3e fb38 c7be
00000290: e6b7 8c3e 126c dabe acaf 673e de49 f33e
000002a0: fa8e b93e 38a1 5b3e 1bf2 2c3f 108a 473e
000002b0: 809a 323e 589a b9bd 0163 2bbf 04da 08bf
000002c0: cc44 7e3e 2cd4 19bf 668c 92be 14dc 313e
000002d0: 9bcb 29bf 93de ccbe 1889 a83d 5f25 1fbf
000002e0: 08a7 ebbd 7640 fb3e dea2 c03e 9815 19bf
000002f0: a834 4a3e f8aa 973d d0ab f1be 9b97 283f
00000300: c0c3 1bbf 8080 1cbd ccfa 02bf e0b6 aebd
00000310: 8039 98bc 3685 8d3e f762 05bf 00d4 2eba
00000320: 1968 283f 15c8 31bf 2350 2ebf 1857 1dbe
00000330: c2d4 e33e 6b5a 1abf 0d1c 053f c0f4 81bd
00000340: b9b3 1c3f 6488 553e 57af 213f 5f4b 113f
00000350: 2e67 f23e e184 17bf e9e0 cfbe b2b3 ab3e
00000360: 8c4a bbbe 4080 e4bc 80fc 833e 6e38 de3e
00000370: 2427 003e 965f 9d3e f969 e6be 602f 68be
00000380: eaec be3e 400e 8fbd a88c a5bd 8cf3 4f3e
00000390: aa95 a73e 2cba 7cbe 7cf6 423e 6989 2d3f
000003a0: 0f7c 1b3f 2e97 75be 4f1e b2be f843 a0be
000003b0: 095a 073f 0095 38bd a311 1b3f 6848 cbbd
000003c0: d9d6 183f d6c6 e2be ec44 20be a75a 313f
000003d0: 60df 4fbe ec57 543e 0de7 153f 82cc 853e
000003e0: fc7e 0dbf 70bc 0fbe c8c3 84be 6b16 1b3f
000003f0: c022 1a3e ce89 14bf 82d2 c83e 71e4 c3be
